data/course_materials/m1/s2/Apprentissage/TP5/denoising_ae.pth (torch, 33794 bytes, 11 tensors)

encoder.0.weight f4 [16, 1, 3, 3]
0.030152757 0.21544673 -0.09522653 0.038367566 -0.11575112 0.1377072 -0.18214306 0.09989741
0.11253167 0.0718379 0.19338 0.031268954 -0.32075796 -0.25728127 -0.09663125 -0.21728909
0.1549068 0.21957013 -0.20634776 -0.01871983 -0.115296036 -0.25145698 0.010465065 -0.15312582
-0.076320395 0.15031162 -0.29694262 0.1798477 0.29728007 -0.17038196 -0.0782811 0.2550382
-0.23401691 -0.15182191 -0.06217668 -0.18623587 -0.0024643983 -0.11956977 -0.15375546 -0.03706452
-0.18140498 -0.17546326 -0.009891536 -0.11467259 -0.07649731 0.56883967 0.5146399 0.051773377
0.79644287 0.85582376 0.4937202 0.50514096 0.7505734 0.45484662 0.16402194 0.07694721
-0.20014334 -0.2597947 0.18581617 -0.15426998 -0.28585023 -0.17688891 0.25024623 -0.15625843
-0.16663723 0.21258235 -0.25487977 0.31591988 0.31052077 -0.14919083 0.18583226 -0.05087062
-0.25719035 0.04585 0.32528067 -0.46505052 -0.008369743 0.5987015 -0.29554924 -0.03550205
0.4631333 -0.012785434 -0.13250329 -0.15979661 -0.050606925 -0.14613765 -0.12181901 -0.040634762
-0.07396903 0.0012483542 -0.3097437 0.22904512 -0.25437582 0.22624478 0.25220585 -0.16821572
-0.19993345 0.16824035 -0.010074735 0.20184956 0.3623639 0.4010094 0.2731606 0.7386771
0.73051924 0.023643354 0.5985421 0.47207174 0.07739175 -0.14258707 0.31211162 0.16201296
-0.3125198 0.18859394 -0.26037547 -0.079533815 -0.067028016 0.018548807 -0.032562338 0.055074573
-0.029471278 -0.0262899 0.24541473 0.25226533 -0.15007941 0.109751344 0.016171176 0.0007386708
-0.33967322 -0.121779785 -0.11819469 0.16679549 0.013169018 -0.33227918 -0.3314433 -0.03430339
0.24191746 -0.2725972 0.24718384 0.05987259 -0.2146055 -0.037946343 -0.21406388 -0.17452535
00000000: ea02 f73c 119e 5c3e 2106 c3bd 4f27 1d3d
00000010: ec0e edbd 1e03 0d3e b683 3abe 0397 cc3d
00000020: 0177 e63d c01f 933d 6805 463e e013 003d
00000030: 633a a4be 5fba 83be 9be6 c5bd 0881 5ebe
00000040: e39f 1e3e fed6 603e d44c 53be 545a 99bc
00000050: 5420 ecbd f8be 80be aa75 2b3c 04cd 1cbe
00000060: de4d 9cbd 4aeb 193e dd08 98be ff29 383e
00000070: 1835 983e 9c78 2ebe d751 a0bd 5e94 823e
00000080: 21a2 6fbe 3477 1bbe f9ac 7ebd 9eb4 3ebe
00000090: be81 21bb ffe0 f4bd 1272 1dbe f7d0 17bd
000000a0: 3ac2 39be a4ac 33be 1c10 22bc 76d9 eabd
000000b0: 9faa 9cbd 7a9f 113f 71bf 033f 5210 543d
000000c0: aee3 4b3f 4417 5b3f e5c8 fc3e eb50 013f
000000d0: 9425 403f a8e1 e83e 5ef5 273e 8096 9d3d
000000e0: 60f2 4cbe d003 85be 9846 3e3e f3f8 1dbe
000000f0: f65a 92be 5e22 35be 4620 803e 3602 20be
00000100: f3a2 2abe 30af 593e 9a7f 82be 40c0 a13e
00000110: 94fc 9e3e 7bc5 18be d04a 3e3e b65d 50bd
00000120: 74ae 83be 36cd 3b3d 308b a63e 1a1b eebe
00000130: 3f21 09bc 8044 193f 3b52 97be 996a 11bd
00000140: cf1f ed3e ff79 51bc f1ae 07be b9a1 23be
00000150: 3549 4fbd 1ca5 15be 3f7c f9bd a370 26bd
00000160: 137d 97bd d19f a33a ba96 9ebe ce8a 6a3e
00000170: 8c3d 82be b6ac 673e 2021 813e be40 2cbe
00000180: 5bbb 4cbe 3347 2c3e 8010 25bc a7b1 4e3e
00000190: c387 b93e 1b51 cd3e b5db 8b3e f119 3d3f
000001a0: 4f03 3b3f b5af c13c 0e3a 193f 63b3 f13e
000001b0: 917f 9e3d 5802 12be 18cd 9f3e bae6 253e
000001c0: 9802 a0be c51e 413e ef4f 85be a0e2 a2bd
000001d0: fc45 89bd abf3 973c 1660 05bd e095 613d
000001e0: c06d f1bc eb5d d7bc 004e 7b3e ec28 813e
000001f0: 6bae 19be 50c5 e03d 6a79 843c 5ca3 413a
00000200: a6e9 adbe ae67 f9bd 0f10 f2bd 70cc 2a3e
00000210: ddc2 573c 7f20 aabe f0b2 a9be b681 0cbd
00000220: 36b9 773e dc91 8bbe c31d 7d3e f63c 753d
00000230: 8bc1 5bbe a06d 1bbd 9033 5bbe c6b6 32be

encoder.0.bias f4 [16]
0.008423253 0.062368594 0.0016296059 0.15045781 0.6903484 0.30047923 -0.3085698 0.21531062
0.35299948 0.6137564 -0.2569993 -0.11629966 0.030008152 -0.059651576 -0.22371356 -0.14820635
00000000: af01 0a3c 3676 7f3d 8098 d53a 9d11 1a3e
00000010: acba 303f 6ad8 993e dcfc 9dbe 637a 5c3e
00000020: 59bc b43e 241f 1d3f 6a95 83be 842e eebd
00000030: a8d3 f53c 3655 74bd 2b15 65be 68c3 17be

encoder.2.weight f4 [32, 1, 3, 3]
-0.2055549 0.16324988 -0.021385094 0.307204 0.26461443 -0.25733352 0.11361414 0.1466972
-0.24355611 -0.17717867 -0.16209686 -0.12612474 -0.13818793 0.19371153 -0.03414158 -0.13683116
0.32605854 0.24984342 -0.28564554 0.20781574 -0.16010062 0.10581426 -0.15294716 -0.026922544
-0.2976601 0.19999501 -0.23152387 0.014490088 -0.14911847 0.3201947 -0.2605805 0.058745146
0.13072145 0.2507877 -0.20051026 -0.29027534 -0.002753099 -0.10223627 -0.00091143453 0.27600595
-0.17019546 0.04001073 -0.3244058 0.18862626 0.2972036 -0.18625578 -0.12785198 0.25094247
0.28128627 0.12444171 -0.33435586 0.20481114 0.2691013 0.19573022 -0.26432118 0.056650482
-0.16858062 -0.024376314 0.19613628 0.18164997 -0.24675839 -0.15568948 -0.2760193 0.29103866
0.28372377 -0.21994078 -0.022964127 -0.17716533 -0.25890365 0.21435459 -0.035304904 -0.15125233
-0.05933957 0.85666305 0.78929573 0.86842203 1.1286982 0.80332065 0.2899484 0.6447693
0.057695795 0.23849818 0.7568971 0.9527228 0.5668848 1.2937067 0.8800122 0.30211508
0.7574912 0.35052577 -0.025629876 0.029417092 0.509449 0.22522871 0.5789229 0.53053975
0.5789428 0.59787196 0.34032136 0.22627194 0.17721622 -0.043752544 0.5376354 0.63184685
0.27894872 0.87782085 0.7430678 0.6162821 0.06645795 0.08895993 -0.19385259 0.035284758
0.31339344 -0.15166812 0.29512283 0.029593509 -0.10454838 -0.018165033 -0.19133186 0.22402632
0.07320166 -0.029432973 -0.25100607 -0.03390686 0.19169077 0.12119913 0.30926415 -0.3052597
0.045369428 0.3180297 -0.008923292 0.09278055 0.04401859 -0.1280648 -0.047249995 -0.19945034
0.14792705 -0.17742765 0.1250287 0.2705977 0.21610829 -0.2547598 -0.14167976 0.25880677
0.14516434 0.8176723 0.41029245 0.15759161 1.1215124 0.35158703 0.045237668 0.7883107
0.11112925 0.17510311 2.1249104 1.2243867 0.623124 1.9901574 1.085128 -0.052035492
0.44759992 0.33075503 0.8112991 1.3938651 1.0261173 1.1240814 1.4226035 0.7464597
1.0800998 0.7191446 -0.054131635 0.11111653 -0.18014574 0.22510096 0.12450282 0.111712575
0.13170859 0.08201961 -0.25361344 -0.2585107 -0.116876446 0.014552116 -0.13339965 0.14688918
0.17494473 -0.14308266 0.07485668 0.32908815 -0.26378018 0.14629376 -0.2370516 0.23571262
-0.037379067 -0.28717917 -0.20269279 -0.013772289 -0.21468131 -0.16304092 0.36218932 0.390084
0.36559325 0.34270212 0.5645418 0.5329498 0.18316385 0.43635997 0.31856933 0.22402768
-0.13508093 -0.32646176 -0.16534832 0.25722492 0.26024973 -0.15409653 -0.2830492 0.052734673
0.2964887 -0.29647198 0.1406809 0.073746346 0.106706195 -0.31200764 0.12456069 -0.2050419
0.037221096 0.18204303 -0.061190203 -0.33902708 0.20522122 -0.050675876 0.08605706 0.31675455
0.25580683 0.026097186 -0.13793425 0.17226593 0.10064928 0.013770064 0.020947894 0.22011583
0.0026142597 0.116371036 -0.29692814 -0.08165972 0.057356916 0.2876383 0.2994659 -0.21277921
0.09341478 0.021392187 0.17975299 0.17679434 0.17950745 0.32528007 -0.25046006 -0.11304613
00000000: fc7c 52be fa2a 273e cb2f afbc d849 9d3e
00000010: 8b7b 873e 38c1 83be 88ae e83d ca37 163e
00000020: c666 79be 536e 35be b8fc 25be d826 01be
00000030: 2381 0dbe 515c 463e 0bd8 0bbd 781d 0cbe
00000040: 25f1 a63e f4d6 7f3e 2240 92be a6cd 543e
00000050: 6bf1 23be 26b5 d83d 2e9e 1cbe ab8c dcbc
00000060: e866 98be 7ecb 4c3e 9814 6dbe d667 6d3c
00000070: 83b2 18be 8ff0 a33e cf6a 85be c09e 703d
00000080: d8db 053e 3f67 803e 9052 4dbe f89e 94be
00000090: 566d 34bb 4061 d1bd 56ed 6eba a750 8d3e
000000a0: b847 2ebe 4be2 233d 8418 a6be 3e27 413e
000000b0: 122b 983e d6b9 3ebe a1eb 02be 887b 803e
000000c0: c104 903e 4cdb fe3d b130 abbe 03ba 513e
000000d0: a5c7 893e 816d 483e 1b55 87be 560a 683d
000000e0: 66a0 2cbe d6b0 c7bc f3d7 483e 7302 3a3e
000000f0: 3bae 7cbe 106d 1fbe 6752 8dbe 0503 953e
00000100: 3e44 913e 2838 61be 441f bcbc d46a 35be
00000110: 058f 84be c57f 5b3e e09b 10bd e4e1 1abe
00000120: 0d0e 73bd 454e 5b3f 490f 4a3f e850 5e3f
00000130: 2f79 903f 6ca6 4d3f 1e74 943e 9a0f 253f
00000140: 6d52 6c3d de38 743e 02c4 413f a4e5 733f
00000150: 5d1f 113f 2e98 a53f 7b48 613f d4ae 9a3e
00000160: f1ea 413f 1d78 b33e bff5 d1bc 1dfc f03c
00000170: 406b 023f 5ba2 663e 4b34 143f 74d1 073f
00000180: 9835 143f 230e 193f 9a3e ae3e d5b3 673e
00000190: 2b78 353e de35 33bd 79a2 093f b7c0 213f
000001a0: 5ed2 8e3e deb8 603f b139 3e3f aac4 1d3f
000001b0: 1b1b 883d a030 b63d 4b81 46be c086 103d
000001c0: 1b75 a03e e34e 1bbe 571a 973e 166e f23c
000001d0: 761d d6bd d6ce 94bc 80ec 43be 2867 653e
000001e0: c0ea 953d 6b1d f1bc de83 80be ebe1 0abd
000001f0: 964a 443e 4037 f83d df57 9e3e 004b 9cbe
00000200: 4bd5 393d cad4 a23e 0033 12bc bb03 be3d
00000210: d64c 343d 6b23 03be 3689 41bd b63c 4cbe
00000220: 307a 173e 98af 35be 8607 003e c88b 8a3e
00000230: 7e4b 5d3e e06f 82be 8014 11be 5282 843e
00000240: f6a5 143e f952 513f da11 d23e b25f 213e
00000250: b88d 8f3f 3703 b43e 224b 393d bbce 493f
00000260: bb97 e33d 3b4e 333e 88fe 0740 b4b8 9c3f
00000270: 0e85 1f3f 7abd fe3f 79e5 8a3f 2b23 55bd
00000280: d12b e53e b958 a93e 4cb1 4f3f 2c6a b23f
00000290: d057 833f e6e1 8f3f df17 b63f fc17 3f3f
000002a0: b640 8a3f dc19 383f 22b9 5dbd 1091 e33d
000002b0: 2078 38be de80 663e 56fb fe3d 90c9 e43d
000002c0: 9ede 063e e6f9 a73d 9fd9 81be 845b 84be
000002d0: eb5c efbd 006c 6e3c eb99 08be 1e6a 163e
000002e0: b624 333e 4384 12be 764e 993d 3e7e a83e
000002f0: 320e 87be 08ce 153e a8bd 72be a65e 713e
00000300: cb1a 19bd 2609 93be b38e 4fbe 2ba5 61bc
00000310: 6bd5 5bbe 33f4 26be e170 b93e 17b9 c73e
00000320: 0a2f bb3e a776 af3e d085 103f 666f 083f
00000330: 4e8f 3b3e 936a df3e 851b a33e 8367 653e
00000340: a852 0abe ff25 a7be 1251 29be fcb2 833e
00000350: 743f 853e 7bcb 1dbe d3eb 90be 5000 583d
00000360: 5ecd 973e 2dcb 97be a70e 103e 5308 973d
00000370: c788 da3d 77bf 9fbe ad19 ff3d 81f6 51be
00000380: 2675 183d 7d69 3a3e 94a2 7abd f594 adbe
00000390: 8325 523e 8291 4fbd af3e b03d a72d a23e
000003a0: 1df9 823e c4c9 d53c a33e 0dbe 7b66 303e
000003b0: 3621 ce3d d69b 613c eb9a ab3c 0b66 613e
000003c0: 0054 2b3b f053 ee3d f706 98be 363d a7bd
000003d0: 16ef 6a3d 5445 933e 9853 993e cbe2 59be
000003e0: 4050 bf3d ab3e af3c 2b11 383e 9309 353e
000003f0: cdd0 373e 1c8b a63e 4d3c 80be bb84 e7bd

encoder.2.bias f4 [32]
0.096734785 -0.29345724 0.10456745 -0.15478215 -0.30548626 -0.27349272 0.095974445 -0.18048865
0.2670837 -0.18004516 0.42645824 0.26118022 -0.32632554 -0.107548475 0.2629387 -0.033253115
0.5621294 0.27080324 0.14421627 0.019236367 0.09337823 -0.21331517 0.68983454 -0.038951334
0.2599702 0.029767144 0.31969512 -0.11997867 -0.22122099 0.10098275 0.013369402 0.1462439
00000000: e31c c63d 0740 96be 7627 d63d 367f 1ebe
00000010: b268 9cbe 3d07 8cbe 408e c43d 04d2 38be
00000020: 32bf 883e c25d 38be bc58 da3e 6ab9 853e
00000030: 2414 a7be 6042 dcbd e79f 863e 6b34 08bd
00000040: b6e7 0f3f b9a6 8a3e 6ead 133e 9695 9d3c
00000050: 163d bf3d 4b6f 5abe ff98 303f 6f8b 1fbd
00000060: d01a 853e 3ada f33c 14af a33e 60b7 f5bd
00000070: c187 62be 0bd0 ce3d 560b 5b3c f6c0 153e

encoder.4.weight f4 [64, 1, 7, 7]
0.12643163 -0.1103308 0.022214867 0.1186385 0.09382353 -0.1390112 -0.09196421 0.0078115575
0.07345715 -0.06986076 0.0072673024 -0.041878 0.034545068 -0.13156979 -0.022373583 -0.02825405
-0.06615099 0.012330736 0.05753469 0.040425558 -0.14221905 -0.0635882 -0.092950314 0.1053191
0.097161055 0.028217662 -0.0768598 0.040261142 0.07568606 -0.11788253 0.09483324 0.07636235
0.10245508 -0.108270265 -0.020954818 -0.1292191 0.02529031 0.023513494 0.007295296 -0.14665456
-0.059744034 -0.12793927 -0.029098436 0.10906953 -0.06879848 0.13142906 0.05753731 0.038240932
-0.11197629 -0.06950501 -0.003054033 0.07834156 0.13023046 -0.0005396361 -0.04678898 -0.11399416
-0.015774945 -0.14096345 0.11157841 -0.0673606 0.008798635 0.13184568 -0.13646713 0.04098026
-0.11789688 -0.045777477 -0.08937012 0.07160241 0.06155713 0.09047046 0.06171775 0.11896206
0.06628022 -0.07955609 0.09166122 -0.084420145 0.057460602 -0.07447564 0.018877232 0.045977272
-0.00595234 -0.053678125 -0.10248047 -0.089146465 0.06923733 0.10529481 -0.12278434 -0.1261937
0.08897427 0.00916243 0.12596817 -0.019718492 -0.03983886 0.087203704 0.019038068 -0.03468946
-0.06629532 -0.008612259 -0.007823179 -0.036720347 0.069463015 0.09605667 -0.07265948 -0.03227304
-0.119090766 0.08090277 0.12878668 0.07450608 0.0939874 -0.12442044 0.12911613 -0.044867806
-0.06916443 0.031562723 0.028303811 -0.09113551 0.10549255 -0.028800983 0.020882387 -0.11980827
0.10260347 -0.090227984 0.050132874 -0.016050288 -0.09941258 -0.043191675 -0.11721344 0.08776761
-0.04643248 0.06712888 0.045104947 -0.097713046 -0.08980288 0.112421535 -0.09647434 0.13765351
0.0022324154 0.03319623 -0.08061486 0.055282034 -0.06548853 0.058899235 -0.11327257 0.014750056
0.02763854 -0.06921368 0.10513712 0.09985992 -0.083143234 0.059623312 -0.043941926 0.029997656
0.116365135 0.0684496 -0.10797871 -0.04116658 -0.03754611 0.14211689 0.041753158 -0.042394284
-0.039695095 0.11016938 0.13632104 0.12772922 -0.02293975 -0.016462822 -0.054323506 -0.104051545
-0.05690006 0.03946805 0.034489788 -0.03791879 0.06181269 -0.014172146 -0.078131765 -0.056199364
0.12865634 -0.055076364 -0.06838082 0.02976852 0.042118467 0.09055402 -0.069136165 -0.099973
0.09477329 -0.13241275 -0.12884891 0.06425819 0.13045059 -0.13966481 0.12286097 0.09757076
-0.05449934 0.01707428 0.009219732 0.019525886 0.07029573 0.09363187 0.10130605 -0.07979819
0.09033301 0.081047505 -0.010430541 0.08761795 0.07455077 0.039498534 0.017212937 0.0064397203
-0.038791947 0.060541786 -0.02822951 0.073455505 -0.10726616 0.11986367 -0.09586065 0.11794838
-0.03256146 0.09762795 0.02673391 0.1345748 -0.114438556 -0.03748768 0.081177235 0.034233555
-0.07818978 0.043070845 0.04138446 -0.09179208 -0.07779028 -0.0363838 -0.024934513 0.055420436
0.07340978 -0.005531056 0.078999095 -0.0546593 0.022036893 0.11121832 0.027954733 -0.01897972
0.057647232 -0.09806487 0.109292515 0.10559646 0.0078262435 -0.055410318 0.12150208 -0.14121501
0.057434663 -0.026932037 0.042813305 -0.060127687 -0.094948344 -0.01571635 0.055333294 -0.06509109
00000000: 4b77 013e 1df5 e1bd f4fb b53c bef8 f23d
00000010: 8d26 c03d f458 0ebe bb57 bcbd 18f8 ff3b
00000020: b470 963d 2813 8fbd 8d22 ee3b 4488 2bbd
00000030: 217f 0d3d 3bba 06be ce48 b7bc 0a75 e7bc
00000040: 2c7a 87bd db06 4a3c 7fa9 6b3d 4595 253d
00000050: dfa1 11be 883a 82bd bc5c bebd 8ab1 d73d
00000060: 60fc c63d ba28 e73c ac68 9dbd dee8 243d
00000070: 4b01 9b3d 656c f1bd ee37 c23d dd63 9c3d
00000080: f8d3 d13d cdbc ddbd 70a9 abbc 0352 04be
00000090: a02d cf3c 5f9f c03c 610d ef3b 9d2c 16be
000000a0: 29b6 74bd 8302 03be d85f eebc d95f df3d
000000b0: 38e6 8cbd 5795 063e 3eac 6b3d 86a2 1c3d
000000c0: d353 e5bd a558 8ebd 2c26 48bb 8a71 a03d
000000d0: 225b 053e 5e76 0dba cda5 3fbd c575 e9bd
000000e0: 753a 81bc b958 10be 3983 e43d 5bf4 89bd
000000f0: 2628 103c 8e02 073e 0abe 0bbe ebda 273d
00000100: eb73 f1bd 2a81 3bbd ae07 b7bd 49a4 923d
00000110: 5423 7c3d 9448 b93d c0cb 7c3d 61a2 f33d
00000120: edbd 873d 4eee a2bd e1b8 bb3d 78e4 acbd
00000130: cf5b 6b3d af86 98bd 6da4 9a3c aa52 3c3d
00000140: d90b c3bb 98dd 5bbd 48e1 d1bd 6c92 b6bd
00000150: 4dcc 8d3d cea4 d73d 5b76 fbbd ec38 01be
00000160: 2438 b63d 041e 163c cdfd 003e ad88 a1bc
00000170: 132e 23bd db97 b23d b9f5 9b3c 8916 0ebd
00000180: d7c5 87bd 6f1a 0dbc ca2c 00bc 1368 16bd
00000190: a042 8e3d 5cb9 c43d 7ece 94bd bc30 04bd
000001a0: dce5 f3bd 5ab0 a53d a8e0 033e a596 983d
000001b0: 777c c03d 25d0 febd 0537 043e 4ec7 37bd
000001c0: 15a6 8dbd ea47 013d 65dd e73c 41a5 babd
000001d0: 7a0c d83d 0af0 ebbc 8a11 ab3c 0a5e f5bd
000001e0: c521 d23d 73c9 b8bd 2158 4d3d e57b 83bc
000001f0: d398 cbbd c1e9 30bd 9a0d f0bd 81bf b33d
00000200: fc2f 3ebd de7a 893d f7bf 383d c71d c8bd
00000210: 93ea b7bd 433d e63d 5794 c5bd 0bf5 0c3e
00000220: b74d 123b c5f8 073d 6719 a5bd 6a6f 623d
00000230: da1e 86bd 5340 713d 73fb e7bd 38aa 713c
00000240: 386a e23c e7bf 8dbd 2152 d73d 5c83 cc3d
00000250: 0047 aabd 9337 743d 73fc 33bd a5bd f53c
00000260: d850 ee3d 4e2f 8c3d f123 ddbd 4a9e 28bd
00000270: f3c9 19bd 1787 113e 5c05 2b3d a1a5 2dbd
00000280: 5397 22bd 7ca0 e13d be97 0b3e 73cb 023e
00000290: 25ec bbbc 0add 86bc 5382 5ebd fa18 d5bd
000002a0: 0a10 69bd 40a9 213d 2a45 0d3d bc50 1bbd
000002b0: 4e2f 7d3d 4a32 68bc 8c03 a0bd 4e31 66bd
000002c0: 7dbe 033e c197 61bd 3e0b 8cbd 1cdd f33c
000002d0: 6a84 2c3d 6374 b93d 4397 8dbd a5be ccbd
000002e0: 8018 c23d 3597 07be f8f0 03be cc99 833d
000002f0: d794 053e 4b04 0fbe 889e fb3d 2ed3 c73d
00000300: b33a 5fbd 5cdf 8b3c 5c0e 173c c0f4 9f3c
00000310: 35f7 8f3d 11c2 bf3d 8c79 cf3d 3c6d a3bd
00000320: 8300 b93d 3cfc a53d dce4 2abc 0a71 b33d
00000330: 13ae 983d 37c9 213d 2502 8d3c 4a04 d33b
00000340: 4ee4 1ebd aafa 773d 9341 e7bc d76f 963d
00000350: 5cae dbbd 157b f53d 9752 c4bd ec8e f13d
00000360: 2a5f 05bd 2af1 c73d 1301 db3c facd 093e
00000370: c35e eabd ae8c 19bd 4040 a63d 7c38 0c3d
00000380: f721 a0bd 0e6b 303d c082 293d 7cfd bbbd
00000390: 8350 9fbd 2e07 15bd 7743 ccbc 8a00 633d
000003a0: de57 963d dc3d b5bb 47ca a13d 6ee2 5fbd
000003b0: b786 b43c 6ec6 e33d 5301 e53c 5c7b 9bbc
000003c0: 811f 6c3d 3cd6 c8bd c1d4 df3d f542 d83d
000003d0: a539 003c eef5 62bd 15d6 f83d ab9a 10be
000003e0: 9c40 6b3d 93a0 dcbc 015d 2f3d 7348 76bd
000003f0: 4774 c2bd 93bf 80bc 2aa5 623d 7a4e 85bd

encoder.4.bias f4 [64]
0.06353621 0.04906541 0.056788184 0.04205667 -0.009339418 0.053176407 -0.079694055 -0.13679814
-0.02105483 -0.0925381 -0.062619425 0.024334304 0.12904379 0.022591474 -7.713944e-05 -0.016014768
0.13133094 0.12160815 -0.12843786 -0.069765456 0.29241842 0.70590425 -0.1609304 -0.4004751
0.0022654363 -0.026634268 0.020179272 0.09030584 -0.08742699 -0.009404455 0.083430536 0.04672158
-0.38495705 -0.3478992 -0.05959237 -0.13551758 0.07029508 0.1073737 0.10367622 0.067713216
-0.0454871 0.07817528 -0.09936633 0.023460304 0.2943077 -0.39705226 0.043734495 0.09244026
0.070595995 -0.14396718 0.06768729 -0.08618242 -0.07644507 0.13653284 0.05893985 0.13293427
0.10755291 0.096477255 -0.0370129 0.07674425 0.014386382 0.11674062 -0.093261264 -0.043680243
00000000: 461f 823d d0f8 483d ba9a 683d 9d43 2c3d
00000010: 5c04 19bc 81cf 593d a336 a3bd d014 0cbe
00000020: 2e7b acbc 9e84 bdbd 9d3e 80bd bc58 c73c
00000030: 0e24 043e c111 b93c ecc5 a1b8 6731 83bc
00000040: 9e7b 063e b20d f93d 3785 03be 31e1 8ebd
00000050: deb7 953e 24b6 343f f0ca 24be 130b cdbe
00000060: b777 143b 1c30 dabc 004f a53c 45f2 b83d
00000070: ec0c b3bd 2515 1abc a1dd aa3d 215f 3f3d
00000080: 1719 c5be d81f b2be 2117 74bd 1fc5 0abe
00000090: def6 8f3d bee6 db3d 3354 d43d 3aad 8a3d
000000a0: ae50 3abd 5c1a a03d 9380 cbbd d32f c03c
000000b0: 80af 963e 6f4a cbbe f122 333d 5251 bd3d
000000c0: a294 903d 226c 13be a29f 8a3d 6980 b0bd
000000d0: 3c8f 9cbd 44cf 0b3e ea6a 713d ec1f 083e
000000e0: b344 dc3d de95 c53d d79a 17bd 172c 9d3d
000000f0: dcb4 6b3c b515 ef3d c3ff bebd 0eea 32bd

decoder.0.weight f4 [64, 1, 7, 7]
-0.13416517 0.081107244 -0.11857534 -0.053693265 0.10499866 -0.037581887 -0.10874619 0.12918444
-0.11141737 0.08826469 -0.09298735 0.05565865 -0.1129628 -0.07990817 0.008603743 -0.12915552
-0.13463362 -0.029467907 -0.004652756 -0.091992944 0.019822666 -0.13709533 0.09926071 -0.051572427
0.09534956 0.04707345 -0.10238047 0.08768186 -0.13499096 -0.12906247 0.04082799 -0.10705354
0.08999893 0.10045254 0.059058174 -0.13038924 0.055496663 -0.022282345 -0.086430825 -0.026938627
-0.030788116 -0.065955915 0.037722845 0.112193234 -0.06527467 -0.06389218 0.0861617 0.06602141
-0.064877465 0.12794204 0.07508977 0.09338687 0.07904103 -0.10255645 0.14241235 0.045948815
-0.04813247 0.123766884 -0.08037009 -0.11954972 0.028650422 0.11523249 -0.041795053 -0.05727346
-0.09452944 0.016218953 0.042823758 -0.035179533 -0.09772597 -0.090176605 -0.1327461 0.060262103
0.042391695 0.067415446 0.10645303 0.020300355 -0.06371474 0.13623208 -0.082514256 -0.12231866
-0.12622103 0.08416624 0.13050424 -0.015986495 -0.04616305 0.06306146 -0.01820607 -0.10664762
0.038124852 0.13746193 -0.11439673 0.10531266 0.08021728 0.04935895 0.13168195 0.07797168
-0.07766511 -0.12258206 -0.10842588 -0.033025622 0.09815314 -0.1213883 -0.10886743 0.09855051
-0.02668677 0.11756261 -0.11578375 0.102143005 0.13502483 0.0827328 0.05494915 -0.13707325
0.04651233 0.039575886 0.13936073 0.105560765 -0.07820332 -0.039386086 0.04574265 0.13796112
0.06153039 -0.05410646 0.11181545 -0.13629633 -0.044904593 0.13956189 -0.07045482 -0.07945197
0.09800366 -0.124071516 -0.10112909 -0.10149212 -0.09696968 -0.09524705 0.08737268 -0.033781003
-0.13727322 -0.058559984 -0.13868876 -0.037356295 -0.06780478 -0.11199502 -0.13451126 -0.1199729
-0.116284765 -0.085171536 -0.054162487 -0.12237032 -0.13044202 0.09575899 0.119984925 -0.0055102454
-0.05034081 0.12789308 0.0024906227 0.06108986 -0.007578867 -0.10771534 -0.09599223 0.10408409
0.012799622 0.073222026 -0.13087507 -0.10413857 0.08988617 -0.009344867 -0.013333049 -0.09375692
-0.020136442 0.07956073 -0.13677125 0.12896773 -0.11596154 -0.13903712 -0.04710484 0.008559534
-0.06225893 0.027901208 0.06947751 -0.005246895 -0.12851413 -0.0155971395 -0.11698056 -0.13998328
-0.021167228 0.009299874 0.035762057 -0.12717935 0.049129847 0.056025628 0.060501188 -0.03923694
0.1411678 0.05030724 0.058340553 -0.06623999 0.14039695 0.12950473 0.07035346 -0.058333553
0.09160749 -0.041667838 0.005904181 0.05561013 -0.09611723 -0.08127363 0.0043712007 0.0072588073
-0.09827175 0.076525114 0.07652893 -0.06645341 -0.056072935 -0.06116094 0.09980681 -0.031347737
-0.006030475 0.010396788 0.134842 -0.10778056 0.06998119 -0.112544596 0.13594082 0.1212191
-0.04336274 -0.052307982 -0.09432216 0.10649583 0.13117623 0.014186298 0.08519151 -0.026596121
-0.1310641 0.04389797 -0.115246505 -0.117512845 -0.108124174 0.07903181 0.10194203 -0.037316784
0.077821136 0.04031372 0.035110068 -0.0125971185 0.13001649 -0.04722122 -0.05890424 -0.12261451
-0.109274544 -0.07488053 0.02900255 -0.006112797 -0.015062418 -0.041059155 -0.08634277 0.05961175
00000000: 9862 09be 8e1b a63d a1d7 f2bd 78ed 5bbd
00000010: 8a09 d73d 77ef 19bd 53b6 debd ed48 043e
00000020: ca2e e4bd 1ec4 b43d 2770 bebd 53fa 633d
00000030: 0a59 e7bd e5a6 a3bd b7f6 0c3c 5841 04be
00000040: 65dd 09be ae66 f1bc 2576 98bb cc66 bcbd
00000050: 2563 a23c b862 0cbe 3349 cb3d 9c3d 53bd
00000060: a146 c33d 17d0 403d daac d1bd 8c92 b33d
00000070: 123b 0abe f428 04be 403b 273d e33e dbbd
00000080: 5c51 b83d 10ba cd3d fce6 713d c284 05be
00000090: 7850 633d 7789 b6bc a502 b1bd 65ae dcbc
000000a0: 5c37 fcbc e513 87bd 4583 1a3d 91c5 e53d
000000b0: baae 85bd e7d9 82bd 8c75 b03d 3c36 873d
000000c0: 7ade 84bd 3d03 033e aac8 993d 9e41 bf3d
000000d0: 43e0 a13d 1e09 d2bd 8bd4 113e d334 3c3d
000000e0: 8e26 45bd 7e79 fd3d 1399 a4bd 7cd6 f4bd
000000f0: 4ab4 ea3c 03ff eb3d 4a31 2bbd 9397 6abd
00000100: a798 c1bd 9cdd 843c f767 2f3d 6a18 10bd
00000110: 8e24 c8bd 83ae b8bd 98ee 07be 65d5 763d
00000120: eaa2 2d3d 1c11 8a3d 0c04 da3d ee4c a63c
00000130: e07c 82bd 6c80 0b3e 3cfd a8bd 3582 fabd
00000140: 1640 01be 5a5f ac3d e7a2 053e 1cf6 82bc
00000150: 7715 3dbd 5e26 813d e524 95bc 116a dabd
00000160: ce28 1c3d d2c2 0c3e d548 eabd 2aae d73d
00000170: f548 a43d 9c2c 4a3d a2d7 063e 9eaf 9f3d
00000180: e30e 9fbd 4e0c fbbd 630e debd e045 07bd
00000190: 8304 c93d 6e9a f8bd e3f5 debd dad4 c93d
000001a0: 379e dabc aac4 f03d 0820 edbd 5a30 d13d
000001b0: f343 0a3e d06f a93d 5c12 613d ee5c 0cbe
000001c0: b783 3e3d 531a 223d 94b4 0e3e 3e30 d83d
000001d0: 1029 a0bd 4e53 21bd a55c 3b3d ae45 0d3e
000001e0: 4a07 7c3d bc9e 5dbd 80ff e43d 4491 0bbe
000001f0: e1ed 37bd 50e9 0e3e 9e4a 90bd b7b7 a2bd
00000200: 25b6 c83d 3519 febd c51c cfbd 1adb cfbd
00000210: 0a98 c6bd e310 c3bd 73f0 b23d f35d 0abd
00000220: 5a91 0cbe 98dc 6fbd 6d04 0ebe ea02 19bd
00000230: 3cdd 8abd a55d e5bd 52bd 09be 5ab4 f5bd
00000240: b526 eebd 6a6e aebd 7cd9 5dbd 4a9d fabd
00000250: 9892 05be 4a1d c43d a8ba f53d 4a8f b4bb
00000260: 2a32 4ebd 67f6 023e b739 233b 5c39 7a3d
00000270: 2558 f8bb dc99 dcbd 9397 c4bd 0a2a d53d
00000280: 81b5 513c 6ef5 953d 1d04 06be 9a46 d5bd
00000290: 3e16 b83d 371b 19bc dc72 5abc a103 c0bd
000002a0: 2ef5 a4bc bcf0 a23d c30d 0cbe 1e10 043e
000002b0: 3e7d edbd bf5f 0ebe 01f1 40bd 4a3d 0c3c
000002c0: 3803 7fbd 1391 e43c 3a4a 8e3d 25ee abbb
000002d0: 3599 03be 258b 7fbc 8193 efbd c757 0fbe
000002e0: e566 adbc 805e 183c 3c7b 123d 4e3b 02be
000002f0: 613c 493d 217b 653d 18d0 773d eab6 20bd
00000300: 4b8e 103e f70e 4e3d 81f6 6e3d d5a8 87bd
00000310: 38c4 0f3e e39c 043e 7a15 903d 2aef 6ebd
00000320: b59c bb3d e5ab 2abd dc77 c13b 73c7 633d
00000330: 1cd9 c4bd ca72 a6bd 4a3c 8f3b 4adb ed3b
00000340: b342 c9bd 33b9 9c3d 33bb 9c3d ba18 88bd
00000350: bcac 65bd e583 7abd 8367 cc3d 7c66 00bd
00000360: 4a9b c5bb 4a57 2a3c 0514 0a3e 0ebc dcbd
00000370: 4c52 8f3d c87d e6bd 1234 0b3e b841 f83d
00000380: 219d 31bd e540 56bd fa2b c1bd 7c1a da3d
00000390: 1053 063e a56d 683c e378 ae3d 1ce0 d9bc
000003a0: ab35 06be 5cce 333d 5c06 ecbd 93aa f0bd
000003b0: 3570 ddbd 6edb a13d fcc6 d03d 7cd9 18bd
000003c0: b060 9f3d 0020 253d 93cf 0f3d 2564 4ebc
000003d0: 0b23 053e 0a6b 41bd 9345 71bd 511d fbbd
000003e0: 55cb dfbd f75a 99bd c196 ed3c dc4d c8bb
000003f0: 5cc8 76bc a52d 28bd 7ad4 b0bd 732b 743d

decoder.0.bias f4 [32]
-0.032137133 -0.01871035 -0.090080045 0.03683431 -0.10147782 0.052529562 -0.08909963 -0.010215791
1.0730797 -0.1589583 0.86390966 0.8756336 0.055421695 0.043506827 -0.1069815 0.074832514
0.27819666 0.23892944 -0.078095995 -0.12841278 -0.038216352 0.13571641 1.673408 -0.12286443
0.05161146 0.029283132 0.023625972 0.07122687 0.11364223 -0.05624017 0.026030457 -0.122495115
00000000: 3aa2 03bd 7346 99bc e37b b8bd 93df 163d
00000010: 9ad3 cfbd 3d29 573d de79 b6bd 2260 27bc
00000020: ad5a 893f f7c5 22be 2f29 5d3f 8629 603f
00000030: dc01 633d 3734 323d 1e19 dbbd ca41 993d
00000040: cb6f 8e3e eba9 743e cbf0 9fbd a47e 03be
00000050: c088 1cbd 3ef9 0a3e 3c32 d63f 59a0 fbbd
00000060: 8a66 533d 2ee3 ef3c 418b c13c 65df 913d
00000070: 42bd e83d 185c 66bd d33d d53c b8de fabd

decoder.2.weight f4 [32, 1, 3, 3]
0.11333772 0.11386596 0.2559469 0.08749502 9.3420735e-05 0.22826707 0.23673846 0.22416934
0.24576475 -0.03771733 -0.16460478 -0.08475811 -0.2718262 -0.02613394 -0.09783815 0.2686794
0.20409963 0.28418058 -0.24480629 -0.16729355 0.025190791 -0.32242772 -0.277578 -0.12175314
0.20083046 -0.17908847 0.30745777 0.13737902 0.33173412 -0.02285127 0.2214149 -0.19924478
-0.04052242 0.15921223 0.098846436 0.03673172 -0.16927072 0.15052745 0.12483045 0.01220878
0.05501219 0.26867443 0.31591842 -0.30404577 0.16169631 -0.32036248 -0.2021883 0.16785924
-0.19622305 0.020489516 -0.26000682 -0.012609805 0.03290154 0.08603248 0.020218056 0.2886392
-0.1377043 0.026416183 0.08285793 -0.25683415 0.09147549 -0.30916688 -0.17996101 0.17790087
0.28472015 -0.18377833 -0.13746265 0.06701402 -0.24466293 -0.074641734 -0.13631094 -0.005961687
0.32400003 0.7138603 0.7972412 0.97924954 1.201656 0.78654355 0.5456151 0.44423416
0.18757884 0.0036815854 0.16539228 0.32569495 0.33010152 0.76510113 0.6579586 0.39542326
0.54659176 0.28796345 0.06106473 0.39848223 0.6091813 0.1838519 0.68409884 0.8207323
0.33685565 0.6814104 0.5149435 0.05225053 -0.0039807316 0.058575496 0.48891902 0.65671796
0.425213 0.46852702 0.6381674 0.4248393 -0.3169735 0.32298476 0.26677155 0.15610676
0.19673233 0.23567879 -0.1861407 -0.14390501 0.2596197 0.18100178 -0.2896533 0.14291231
0.2008116 0.12573211 -0.044521213 -0.28577685 -0.19859898 -0.17270271 0.10967374 -0.059696
0.32050294 -0.11914154 -0.3194643 -0.13723743 0.005253832 0.23688261 -0.13504569 0.046621323
0.32852829 0.23946664 0.091210365 -0.26472592 -0.25813898 0.2987402 -0.22940204 -0.15629992
0.9609782 -0.37567523 0.31620073 1.0597062 -0.03741039 0.38129836 0.24575086 -0.11430075
0.094795465 -0.8303758 -1.1004443 -0.41307715 -0.97440565 -0.4175821 -0.42841998 -0.06388556
-0.49260622 -0.06238992 0.26945603 0.48610598 0.45446658 0.7314308 0.8869068 0.59909475
0.54647684 0.41991892 0.123041466 0.05269885 0.31834388 -0.2848744 -0.30673063 -0.128318
0.17813623 -0.098243475 -0.024161696 0.08774912 0.08438258 -0.15037219 0.0049092374 0.31085086
0.029831529 -0.0032458703 -0.082169496 -0.069250345 0.24845657 0.029989958 0.19356506 0.28478047
0.2909441 -0.21910453 0.13117287 -0.07945931 0.118407294 -0.32113898 0.32911986 0.4656312
0.3317005 0.67113197 0.913306 0.471332 0.47098684 0.6004873 0.25829837 0.25700316
0.17981906 0.07236821 0.046219636 -0.049966853 -0.13308492 0.1229287 -0.19173157 0.13270755
-0.23382987 -0.15448204 -0.06342179 -0.15441264 -0.22204871 0.028234337 0.11707034 -0.2813127
-0.28602672 0.10955958 -0.117787495 -0.27394786 0.18046474 -0.26584086 -0.056600854 -0.08041897
0.025984159 -0.11570474 -0.17654967 0.1342636 -0.08355224 -0.1330832 -0.21162955 -0.03205546
-0.21001732 -0.309553 0.11670761 -0.2456172 0.19018964 -0.32685798 -0.14164726 0.10418125
-0.29821107 0.09636267 -0.19995272 0.14802262 -0.107228756 -0.19671106 0.05122924 -0.2436932
00000000: 9b1d e83d 8e32 e93d 790b 833e 9730 b33d
00000010: e0ea c338 d8be 693e 916b 723e a68c 653e
00000020: c1a9 7b3e 7d7d 1abd 288e 28be a995 adbd
00000030: ce2c 8bbe d816 d6bc 5e5f c8bd 5990 893e
00000040: 7eff 503e 1e80 913e 80ae 7abe 004f 2bbe
00000050: eb5c ce3c 3f15 a5be b41e 8ebe b659 f9bd
00000060: 80a6 4d3e f862 37be 1b6b 9d3e 16ad 0c3e
00000070: 0ed9 a93e 9632 bbbc 96ba 623e d306 4cbe
00000080: d6fa 25bd 8808 233e 0070 ca3d 0074 163d
00000090: 4e55 2dbe de23 1a3e 1ba7 ff3d 5607 483c
000000a0: 7654 613d b28f 893e 0fc0 a13e e3ab 9bbe
000000b0: b893 253e 8d06 a4be 730a 4fbe 4be3 2b3e
000000c0: b2ee 48be a1d9 a73c 9d1f 85be 5b99 4ebc
000000d0: c4c3 063d cc31 b03d 56a0 a53c 84c8 933e
000000e0: 5b02 0dbe c066 d83c 6bb1 a93d c47f 83be
000000f0: 8057 bb3d 1f4b 9ebe b347 38be a52b 363e
00000100: d7c6 913e 6330 3cbe 02c3 0cbe a63e 893d
00000110: eb88 7abe c4dd 98bd 1895 0bbe 415a c3bb
00000120: 55e3 a53e 8cbf 363f 0018 4c3f 19b0 7a3f
00000130: ddcf 993f eb5a 493f 6ead 0b3f a972 e33e
00000140: ab14 403e c146 713b 985c 293e 7dc1 a63e
00000150: 1103 a93e abdd 433f fa6f 283f eb74 ca3e
00000160: 70ed 0b3f f26f 933e 031f 7a3d dd05 cc3e
00000170: 4ef3 1b3f ac43 3c3e 1a21 2f3f 831b 523f
00000180: 5878 ac3e e970 2e3f 56d3 033f a704 563d
00000190: cc70 82bb dcec 6f3d 9853 fa3e ab1e 283f
000001a0: 85b5 d93e c6e2 ef3e f05e 233f 8984 d93e
000001b0: 5a4a a2be 425e a53e 4896 883e 73da 1f3e
000001c0: 3374 493e c855 713e ab9b 3ebe d65b 13be
000001d0: e0ec 843e 8858 393e 704d 94be 9b57 123e
000001e0: 8ea1 4d3e ebbf 003e e05b 36bd 5851 92be
000001f0: 885d 4bbe fbd8 30be a09c e03d cb83 74bd
00000200: f618 a43e 7b00 f4bd d390 a3be f887 0cbe
00000210: 5628 ac3b 5b91 723e 6b49 0abe 00f6 3e3d
00000220: dc34 a83e be36 753e 80cc ba3d 288a 87be
00000230: cb2a 84be 7af4 983e 5ee8 6abe 160d 20be
00000240: ab02 763f 8158 c0be 10e5 a13e 74a4 873f
00000250: a33b 19bd 8a39 c33e 1da6 7b3e 8316 eabd
00000260: 2024 c23d 8293 54bf 5cdb 8cbf d97e d3be
00000270: a672 79bf 52cd d5be dd59 dbbe 6fd6 82bd
00000280: e236 fcbe 938c 7fbd 24f6 893e e2e2 f83e
00000290: d8af e83e 0d3f 3b3f 530c 633f 465e 193f
000002a0: e8e5 0b3f 9dff d63e 2afd fb3d c0da 573d
000002b0: f8fd a23e 0fdb 91be cc0b 9dbe cb65 03be
000002c0: 5869 363e e033 c9bd c0ee c5bc d0b5 b33d
000002d0: c6d0 ac3d 2bfb 19be abdd a03b d827 9f3e
000002e0: 4061 f43c abb8 54bb 7b48 a8bd 20d3 8dbd
000002f0: 666b 7e3e 80ad f53c eb35 463e bfce 913e
00000300: a0f6 943e f05c 60be 2e52 063e 90bb a2bd
00000310: 867f f23d 546c a4be 6682 a83e 3667 ee3e
00000320: a6d4 a93e 4ecf 2b3f 6cce 693f 6e52 f13e
00000330: 3025 f13e 89b9 193f af3f 843e eb95 833e
00000340: 7d22 383e c935 943d cd50 3d3d 0baa 4cbd
00000350: 6a47 08be 0bc2 fb3d 4855 44be 7de4 073e
00000360: 1971 6fbe 8a30 1ebe 49e3 81bd 591e 1ebe
00000370: bd60 63be b24b e73c 93c2 ef3d 3808 90be
00000380: 1872 92be c660 e03d 923a f1bd e542 8cbe
00000390: c0cb 383e 4b1c 88be 4cd6 67bd b3b2 a4bd
000003a0: bbdc d43c 9bf6 ecbd 70c9 34be 667c 093e
000003b0: 701d abbd f646 08be 6bb5 58be 964c 03bd
000003c0: c80e 57be bb7d 9ebe 6604 ef3d 1383 7bbe
000003d0: 13c1 423e ee59 a7be fb0b 11be fb5c d53d
000003e0: 1faf 98be cb59 c53d 68c0 4cbe 3e93 173e
000003f0: c09a dbbd a06e 49be c0d5 513d b68a 79be

decoder.2.bias f4 [16]
1.1179333 -0.08241038 -0.035904333 1.2105722 -0.4987913 -0.30230868 -0.28947407 -0.10219681
0.25854927 0.00042525187 -0.27088827 0.9000068 -0.00651787 -0.20465021 -0.060851946 -0.19832198
00000000: 7018 8f3f c6c6 a8bd 6c10 13bd 08f4 9a3f
00000010: 9361 ffbe 34c8 9abe f235 94be 904c d1bd
00000020: 9260 843e 57f4 de39 deb1 8abe d866 663f
00000030: db93 d5bb d38f 51be e43f 79bd eb14 4bbe

decoder.4.weight f4 [16, 1, 3, 3]
1.0754288 1.4522433 0.5233898 1.2501692 1.2468871 0.22544025 0.41114813 0.1929023
0.13379088 0.32516462 0.06673472 -0.17715392 -0.2928871 0.30314955 0.18940894 0.19741325
0.101268135 0.26875407 0.2510545 -0.16081308 -0.2968891 0.24165808 -0.06292476 -0.1350462
0.25840414 0.1847654 -0.0052785943 0.45235616 1.1477901 0.47029483 0.9144077 1.3689731
0.42569518 0.31980968 0.3450133 -0.19088387 -0.22357395 -0.5469123 -0.37464902 -0.5260891
-1.0072627 -0.58639646 -0.36162478 -0.57772815 -0.27248278 -0.15664816 -0.37578714 -0.26884192
-0.39868042 -0.7643876 -0.44282216 -0.27864656 -0.4693441 -0.21810746 0.2567403 0.24133813
-0.07864702 -0.2640514 -0.07581735 0.015436968 0.22037709 -0.06640856 0.2848376 -0.09372203
-0.14141214 0.087837026 0.28766116 -0.22703525 -0.047438346 -0.22953165 -0.23055772 -0.23295908
0.09304641 0.20028539 0.17140625 0.2671201 0.42356768 0.29656625 0.21704808 0.2743391
0.16634485 -0.18166356 -0.435762 -0.27589515 -0.44810638 -0.8242509 -0.47082695 -0.3132214
-0.47405732 -0.22805078 -0.050590556 -0.08189158 0.08982913 -0.24796069 -0.18871403 0.07931459
-0.057275932 -0.08068518 -0.31337112 0.3552324 0.6604045 0.38565844 0.65603524 1.2039127
0.65792704 0.38182154 0.66952646 0.32751873 0.27087906 0.040928103 -0.031732738 -0.16117649
0.16220939 0.13039243 0.08975394 -0.12629719 0.04555252 0.2097919 -0.25313336 -0.044471186
0.24206376 -0.14126365 -0.26206025 -0.2036256 -0.29316193 -0.09194466 0.14707771 0.20909595
-0.2598163 0.17564169 0.10959239 0.2715643 0.24181432 0.05374531 0.12637724 0.3121868
0.12667596 -0.107018396 -0.18584383 0.32031214 -0.15482537 -0.039202493 -0.13966858 0.2178301
00000000: a7a7 893f 1ce3 b93f e0fc 053f 8b05 a03f
00000010: ff99 9f3f cfd9 663e 0282 d23e 2e88 453e
00000020: 7a00 093e fa7b a63e 36ac 883d d667 35be
00000030: 4cf5 95be 6b36 9b3e 6bf4 413e b326 4a3e
00000040: ab65 cf3d 229a 893e 378a 803e 2fac 24be
00000050: d901 98be 3775 773e b2de 80bd 8d49 0abe
00000060: 8c4d 843e 2433 3d3e 0ff8 acbb 3a9b e73e
00000070: c9ea 923f 7cca f03e 9f16 6a3f 833a af3f
00000080: b8f4 d93e 18be a33e 95a5 b03e 1077 43be
00000090: 92f0 64be 7202 0cbf ffd1 bfbe c6ad 06bf
000000a0: fced 80bf 141e 16bf e226 b9be fee5 13bf
000000b0: dd82 8bbe 6068 20be 2c67 c0be a6a5 89be
000000c0: d71f ccbe e8ae 43bf 96b9 e2be c3aa 8ebe
000000d0: df4d f0be 9057 5fbe 7773 833e 5821 773e
000000e0: b011 a1bd bf31 87be 2046 9bbd 56eb 7c3c
000000f0: 88aa 613e 3601 88bd 3cd6 913e 56f1 bfbd
00000100: 58ce 10be e6e3 b33d 5348 933e ee7b 68be
00000110: b64e 42bd 580a 6bbe 5317 6cbe d38c 6ebe
00000120: 1e8f be3d 9d17 4d3e 1f85 2f3e f7c3 883e
00000130: dddd d83e 88d7 973e da41 5e3e 2d76 8c3e
00000140: 4e56 2a3e 0306 3abe 321c dfbe 2142 8dbe
00000150: 336e e5be 1b02 53bf 3b10 f1be 8e5e a0be
00000160: a4b7 f2be 2586 69be 0b38 4fbd c6b6 a7bd
00000170: 56f8 b73d 68e9 7dbe 403e 41be b06f a23d
00000180: 2b9a 6abd 463e a5bd 2e72 a0be 05e1 b53e
00000190: 4510 293f 0675 c53e edf1 273f d019 9a3f
000001a0: e86d 283f 1d7e c33e 1666 2b3f 89b0 a73e
000001b0: a9b0 8a3e 3aa4 273d 30fa 01bd 730b 25be
000001c0: 381a 263e 9885 053e ead0 b73d 0d54 01be
000001d0: 4795 3a3d b0d3 563e b29a 81be 6b27 36bd
000001e0: 90df 773e 6ba7 10be c32c 86be 3b83 50be
000001f0: 5219 96be 7b4d bcbd 8a9b 163e 401d 563e
00000200: a406 85be 6adb 333e fa71 e03d 7a0a 8b3e
00000210: 2c9e 773e 0b24 5c3d 0969 013e f3d6 9f3e
00000220: 58b7 013e 762c dbbd d84d 3ebe f4ff a33e
00000230: 8b8a 1ebe cb92 20bd 4805 0fbe db0e 5f3e
