data/course_materials/m1/s2/Apprentissage/TP5/model.pth (torch, 32978 bytes, 11 tensors)

encoder.0.weight f4 [16, 1, 3, 3]
0	0x3e852cee	0.2601084
1	0x3d75c056	0.05999788
2	0xbcb2336b	-0.021753034
3	0x3d440a96	0.047861658
4	0x3d61e0a0	0.05514586
5	0x3de20296	0.110356495
6	0x3e61acc3	0.2203856
7	0xbe8148d0	-0.25250864
8	0xbdf4116b	-0.11917385
9	0x3da7c886	0.08192544
10	0x3d9d2726	0.076734826
11	0x3e03e463	0.12880091
12	0xbe951117	-0.291146
13	0x3e81a1f7	0.25318882
14	0xbe822f82	-0.2542687
15	0xbe5d9310	-0.21638131
16	0x3e3dbce8	0.18529093
17	0x3e5e9e93	0.21740179
18	0x3e16bd5b	0.14720671
19	0xbdd6cb30	-0.10487974
20	0xbe9aaadf	-0.3020849
21	0xbdfe352b	-0.12412485
22	0xbe749a1e	-0.23886916
23	0xbe70c23e	-0.23511598
24	0xbe926c33	-0.28598174
25	0xbe4049de	-0.18778178
26	0xbd36aa60	-0.044596076
27	0x3db5258b	0.088450514
28	0x3c189a80	0.009314179
29	0xbe61be13	-0.22045164
30	0xbe77d4f6	-0.24202332
31	0xbdc877fb	-0.097885095
32	0xbe89df9e	-0.2692842
33	0xbe93665a	-0.28789026
34	0x3e0dd583	0.1385098
35	0x3e8f5ff6	0.280029
36	0xbc531356	-0.012883028
37	0xbe82fff8	-0.25585914
38	0x3eaa795b	0.33295712
39	0x3eaaa46a	0.33328563
40	0x3d0f0260	0.034914374
41	0x3e48d0db	0.19610922
42	0x3e8d05ee	0.27543586
43	0xbd2ac316	-0.041689955
44	0x3db710ab	0.08938726
45	0xbe9247ee	-0.28570503
46	0x3ea48d7e	0.321392
47	0xbe72a4db	-0.236957
48	0x3d7eb840	0.062187433
49	0x3e8e2090	0.27759218
50	0xbd2ea1b6	-0.04263469
51	0xbdb20bb0	-0.086936355
52	0xbdbafc16	-0.09130113
53	0x3e5abe60	0.21361685
54	0x3cee452b	0.029085716
55	0x3e0ec8a3	0.13943724
56	0xbddf8956	-0.109148666
57	0x3e95750f	0.2919087
58	0x3e8f6aa0	0.28011036
59	0x3ea8c878	0.32965446
60	0x3e026d80	0.12737083
61	0x3e581e7b	0.21105377
62	0x3e918800	0.28424072
63	0x3deef9eb	0.11668762
64	0x3e5da626	0.21645412
65	0xbe5edba0	-0.21763468
66	0x3e7188de	0.23587367
67	0x3ea9536b	0.33071455
68	0xbe98e45b	-0.2986172
69	0xbdcbd2a6	-0.099522874
70	0xbe9e6528	-0.3093655
71	0x3e8bc6ba	0.27300054
72	0xbdf7bae0	-0.120961905
73	0xbdc27044	-0.09494069
74	0x3d2b482c	0.041816875
75	0x3e425d6d	0.18980952
76	0x3e97ed17	0.29673073
77	0x3cbac935	0.022801021
78	0x3e6aff3c	0.22948927
79	0xbe493c20	-0.19651842
80	0xbe92d301	-0.28676608
81	0x3e54b003	0.20770268
82	0xbe10167b	-0.14071076
83	0xbdff24d0	-0.12458193
84	0xbe53409e	-0.20630118
85	0x3e4377eb	0.19088714
86	0x3e847f0c	0.2587818
87	0xbe7e95eb	-0.24861877
88	0xbe445976	-0.19174752
89	0x3bdb07ab	0.0066842637
90	0x3f15585c	0.5833795
91	0x3f2c4330	0.6729002
92	0x3e30a953	0.17252092
93	0x3f02f158	0.5114951
94	0x3ee9f921	0.45697883
95	0x3e24771f	0.16061066
96	0x3de1a4e7	0.11017781
97	0xbf2091f0	-0.6272268
98	0xbe69d14a	-0.22833744
99	0xbe40bfc8	-0.18823159
100	0x3e44f388	0.19233525
101	0x3e806264	0.25075066
102	0x3e93a32c	0.28835428
103	0x3e9fb80e	0.3119511
104	0xbe24e92e	-0.16104576
105	0xbda644a6	-0.081185624
106	0x3e58db46	0.21177396
107	0x3e33144b	0.1748821
108	0xbf16f5fe	-0.58969104
109	0xbf013855	-0.5047658
110	0xbdb23654	-0.087017685
111	0xbf088bc5	-0.5333827
112	0xbefa88b1	-0.48932412
113	0xbdd87ffe	-0.105712876
114	0xbea5f0d8	-0.32410312
115	0xbed0c710	-0.40776873
116	0xbf200778	-0.62511396
117	0x3d4d4976	0.050118886
118	0x3e109643	0.1411982
119	0xbe0aa468	-0.13539279
120	0x3e326750	0.17422223
121	0xbe3f07b8	-0.18655288
122	0xbe975a97	-0.29561302
123	0xbe8a0eee	-0.26964515
124	0x3dbd64d0	0.09247744
125	0xbda0f270	-0.07858741
126	0xbe40ce2e	-0.18828651
127	0xbcac4a16	-0.02103142
128	0x3e0a8873	0.13528614
129	0xbdb8e9eb	-0.09028991
130	0x3dea9b5b	0.11455413
131	0xbdb6a30b	-0.08917817
132	0x3d688a60	0.05677259
133	0xbe5ca100	-0.21545792
134	0xbe8d3c7a	-0.27585202
135	0x3de7f509	0.113260336
136	0x3f34c265	0.7060912
137	0x3f17ad0f	0.5924844
138	0x3f269a06	0.6507877
139	0x3f52f337	0.82402366
140	0x3eb94cf0	0.3619151
141	0x3e8484b3	0.2588249
142	0x3f34e029	0.7065454
143	0xbef06eaa	-0.4695943

encoder.0.bias f4 [16]
0	0xbea5afbf	-0.32360646
1	0x3dca95b0	0.09891832
2	0x3e54ba6e	0.20774242
3	0x3dfdf266	0.123997495
4	0x3e1399de	0.14414164
5	0x3e52ac36	0.20573506
6	0x3e77fc16	0.24217257
7	0x3e37d57e	0.17952535
8	0xbb68e33c	-0.0035535833
9	0x3e93a5b2	0.28837353
10	0x3e7b7078	0.24554622
11	0x3c0482d6	0.008087834
12	0x3dcdcc65	0.10048751
13	0xbe8f5b96	-0.27999562
14	0x3b6e8556	0.0036395392
15	0x3f2798df	0.6546764

encoder.2.weight f4 [32, 1, 3, 3]
0	0xbe778243	-0.24170785
1	0xbe5d7946	-0.21628293
2	0xbd9a55f6	-0.07535927
3	0x3d8ed336	0.06973879
4	0x3da27036	0.07931559
5	0xbd963fb0	-0.07336366
6	0x3d68c696	0.05683001
7	0x3e0013b3	0.12507515
8	0x3c271080	0.010196805
9	0xbdb90ddb	-0.09035846
10	0x3ca70d00	0.020391941
11	0x3ea82c76	0.3284642
12	0xbd42a660	-0.04752195
13	0xbdf247d6	-0.11830108
14	0x3dcf886b	0.101334415
15	0xbe2cf33b	-0.1688966
16	0x3e37ea06	0.17960367
17	0xbe5e8d53	-0.21733598
18	0xbea6c344	-0.3257085
19	0xbe8fbdd2	-0.2807451
20	0xbdb52086	-0.08844094
21	0xbd1baa8b	-0.03800444
22	0xbe81d263	-0.25355825
23	0xbc11a22b	-0.0088887615
24	0x3d261236	0.04054471
25	0xbd981c76	-0.074273035
26	0x3e9e555e	0.30924505
27	0xbe7929b3	-0.24332313
28	0xbdfca5d0	-0.12336314
29	0xbea4aace	-0.32161564
30	0xbdffc986	-0.124896094
31	0x3e825ab3	0.25459823
32	0xbdd9152b	-0.105997406
33	0x3d096476	0.033543073
34	0x3e9c12d2	0.3048311
35	0xbe216ed6	-0.15764937
36	0xbe9e1e90	-0.30882692
37	0xbd850f0b	-0.0649701
38	0x3d3af756	0.045646034
39	0xbe2d501e	-0.16925094
40	0x3dd93456	0.106056854
41	0xbae6eaab	-0.0017617544
42	0xbea4f1ae	-0.32215637
43	0x3d930230	0.071781516
44	0x3e57bd6b	0.21068351
45	0xbde9b276	-0.11410992
46	0x3cfb4cc0	0.030676246
47	0xbe50b2b6	-0.20380673
48	0xbe5dfc93	-0.2167838
49	0xbea1b29b	-0.31581578
50	0x3ea893a2	0.32925135
51	0xbdc21f0b	-0.09478577
52	0xbe75b11e	-0.23993346
53	0xbe9c1f4a	-0.30492622
54	0xbea22416	-0.31668156
55	0x3dea7a80	0.11449146
56	0xbe09a166	-0.13440475
57	0xbd798ad6	-0.06092342
58	0x3e1bda4b	0.15219991
59	0x3e731c8b	0.23741357
60	0x3e8481fb	0.25880417
61	0x3e95e6ca	0.2927764
62	0xbe719098	-0.23590314
63	0xbd0a8e20	-0.033826947
64	0xbe93d350	-0.28872156
65	0xbe00c0db	-0.12573569
66	0x3d0dbd00	0.034604073
67	0x3e987fcb	0.29784998
68	0xbe68169b	-0.22664873
69	0x3c9249d6	0.017857473
70	0xbe51b830	-0.20480418
71	0xbe9cf2ba	-0.30653936
72	0xbdb31d36	-0.08745806
73	0xbe1a1eb8	-0.15050781
74	0xbd83cf76	-0.064360544
75	0xbd908b3b	-0.07057806
76	0xbdf29ba0	-0.11846089
77	0xbd284020	-0.04107678
78	0x3e9498d4	0.2902285
79	0xbe2eb8fe	-0.17062756
80	0x3d7d4736	0.06183549
81	0x3c0e6980	0.008692145
82	0x3e54748e	0.20747587
83	0xbe8f3903	-0.27973184
84	0x3e8f85e6	0.28031844
85	0x3d8a6e00	0.06759262
86	0x3e7c37f6	0.24630722
87	0xbddfe126	-0.109316155
88	0x3d5c898b	0.05384211
89	0xbe8fd3a4	-0.28091156
90	0x3e785733	0.24252014
91	0xbc19a380	-0.00937736
92	0x3dfac0c6	0.122438
93	0xbdea176b	-0.11430248
94	0x3e60708e	0.21917936
95	0xbea30dc4	-0.3184644
96	0x3d6289e0	0.05530727
97	0xbe2b8446	-0.16749677
98	0xbd871cb0	-0.065972686
99	0x3eaa93fa	0.33316022
100	0xbe83ce78	-0.2574346
101	0xbe8b5a44	-0.27217305
102	0xbddfaf10	-0.109220624
103	0x3daf7ac6	0.08568339
104	0x3e0dfbae	0.1386554
105	0xbe6b110b	-0.2295572
106	0x3e94402a	0.28955203
107	0xbe864984	-0.26227963
108	0xbe1c639e	-0.15272376
109	0xbe1b35cb	-0.15157239
110	0xbe0aa9b3	-0.13541298
111	0xbe4544a8	-0.19264472
112	0x3d6193cb	0.055072587
113	0xbdb896a6	-0.09013109
114	0xbe9bdfcf	-0.3044419
115	0xbd8fa790	-0.07014382
116	0x3e0b52db	0.13605826
117	0xbe1731c8	-0.14765084
118	0x3c9f95d6	0.019480627
119	0x3e7a6a8b	0.24454705
120	0xbe61f668	-0.22066653
121	0xbdb4fb16	-0.08836953
122	0xbe9f08b8	-0.3106134
123	0x3e8e908b	0.27844653
124	0xbe5521d3	-0.20813684
125	0xbc619700	-0.013768911
126	0xbd1f546b	-0.038898867
127	0x3e3126d0	0.17299962
128	0xbdc22f86	-0.094817206
129	0xbe86d9de	-0.26338094
130	0x3ea37e34	0.31932223
131	0xbea5b7b3	-0.32366714
132	0xbd4baeab	-0.049727123
133	0x3e6aece3	0.22941928
134	0xbea2e742	-0.3181706
135	0xbda6b1db	-0.08139392
136	0xbe94dfc4	-0.2907697
137	0x3e0b2abe	0.13590524
138	0xbd843c5b	-0.064568244
139	0xbda0c4e0	-0.07850051
140	0x3e831b30	0.2560668
141	0x3e97a5e0	0.2961874
142	0xbea8e5eb	-0.32987913
143	0xbe213d06	-0.15745935
144	0xbe413cb0	-0.18870807
145	0xbc9de240	-0.019272923
146	0x3c508a56	0.012728294
147	0xbe05f9ae	-0.13083526
148	0xbd7b790b	-0.061394732
149	0x3d5d118b	0.05397181
150	0xbe8aff7b	-0.2714804
151	0x3e8a93b8	0.27065825
152	0xbde309a6	-0.11085825
153	0xbe388b84	-0.18021971
154	0x3dc56b20	0.09639573
155	0x3c99e545	0.018786082
156	0x3e9a14a7	0.3009388
157	0xbd9ede0c	-0.07757196
158	0x3e562df9	0.20915975
159	0x3e69b2dc	0.22822136
160	0x3e8319ca	0.25605613
161	0xbe455f7a	-0.19274703
162	0xbdc034bb	-0.093850575
163	0x3c4d3056	0.012523731
164	0x3e212986	0.15738496
165	0xbce62a96	-0.028096478
166	0xbd1f1316	-0.03883656
167	0xbe1f9673	-0.15584736
168	0xbe94c39b	-0.29055485
169	0xbd0795e0	-0.033101916
170	0x3ea3b034	0.3197037
171	0x3e60f220	0.21967363
172	0xbe8485cc	-0.2588333
173	0x3e9b6306	0.30348986
174	0xbb9b8f56	-0.0047473116
175	0xbea62ea3	-0.32457456
176	0x3d960886	0.073258445
177	0x3e366c08	0.17814648
178	0xbe8626a0	-0.26201344
179	0xbe049cd3	-0.12950449
180	0x3f48f113	0.7849285
181	0x3ed477be	0.41497606
182	0x3f18b448	0.5965009
183	0x3ec73cf4	0.3891369
184	0x3e91303d	0.28357115
185	0x3f066e4b	0.52512044
186	0x3f499fcd	0.7875946
187	0x3e948ffe	0.29016107
188	0x3f1050b5	0.5637315
189	0x3ef2ea5f	0.47444436
190	0x3ecb1a3a	0.39668447
191	0x3ca38254	0.019959606
192	0x3ecab96c	0.3959459
193	0x3eb96014	0.36206114
194	0x3e8c2a14	0.27375853
195	0x3ecd60e0	0.40112972
196	0x3eb046ca	0.34429008
197	0x3f17b929	0.59266907
198	0xbea395b8	-0.31950164
199	0x3e7976a8	0.2436167
200	0x3e42d966	0.19028243
201	0xbea96cca	-0.33090812
202	0xbdfb485b	-0.1226966
203	0xbe96c3fe	-0.29446405
204	0x3e88150c	0.26578557
205	0x3e9994c7	0.2999632
206	0x3e1b30ee	0.15155384
207	0xbe08630e	-0.13319036
208	0x3d62128b	0.055193465
209	0xbdcf41b0	-0.10119951
210	0x3e90bf18	0.28270793
211	0xbbea2256	-0.0071452064
212	0x3d8db126	0.06918554
213	0xbde19400	-0.11014557
214	0xbdca7a00	-0.09886551
215	0x3e08649e	0.13319632
216	0x3e9fa4c5	0.31180397
217	0x3db6c73a	0.08924718
218	0x3e84fd4a	0.25974494
219	0x3eed4b0b	0.46346316
220	0x3ed70052	0.41992432
221	0x3df76aa9	0.12080891
222	0x3e0a985c	0.13534683
223	0x3efffa2a	0.49995548
224	0x3f0ad76f	0.54234976
225	0x3f088798	0.533319
226	0x3eca527b	0.39516053
227	0x3eca1da3	0.39475736
228	0x3e94f6b1	0.2909446
229	0x3f1412ce	0.57841194
230	0x3f17b433	0.5925934
231	0x3dd222e1	0.10260559
232	0x3e8ae0e3	0.271247
233	0x3c1c6fc4	0.009548131
234	0x3cb968ab	0.022632917
235	0xbd857510	-0.065164685
236	0x3e54d938	0.20785987
237	0x3e642a48	0.22281754
238	0xbe9f21c3	-0.31080446
239	0xbe2a28b3	-0.16617088
240	0x3e327388	0.17426884
241	0xbe8f8914	-0.2803427
242	0xbe851476	-0.25992173
243	0x3e031f76	0.1280497
244	0xbe8104fb	-0.25199112
245	0x3e969d2c	0.29416788
246	0xbe0e2ecb	-0.13885038
247	0x3e984fbf	0.2974834
248	0xbe86ac14	-0.2630316
249	0xbe9cc8c3	-0.3062192
250	0x3df3c650	0.119030595
251	0xbd989c40	-0.07451677
252	0x3e94f06f	0.29089686
253	0xbe2b07d0	-0.16702199
254	0x3e408ee8	0.18804514
255	0xbe8cc6c4	-0.27495396

encoder.2.bias f4 [32]
0	0xbe796928	-0.2435652
1	0xbe98b163	-0.29822835
2	0xbdc1edab	-0.0946916
3	0xbe30c2eb	-0.17261855
4	0xbdd29b76	-0.10283558
5	0xbde1a6fb	-0.11018177
6	0x3e41f85b	0.18942396
7	0xbe0f8a3b	-0.14017574
8	0xbe9f7083	-0.31140527
9	0x3df1179b	0.117720805
10	0x3e971b02	0.29512793
11	0x3e0b14bb	0.13582127
12	0x3dd2b8f0	0.1028918
13	0x3dfab856	0.122421905
14	0x3e8e6180	0.27808762
15	0xbd1b494b	-0.037911694
16	0xbea42060	-0.3205595
17	0xbde19b33	-0.1101593
18	0x3ddd32f0	0.10800731
19	0x3d6046b6	0.054754935
20	0x3f353e38	0.70798063
21	0x3eed0939	0.462961
22	0xbcb3be96	-0.021941464
23	0xbe27d9d6	-0.16391692
24	0x3d2df15c	0.042466506
25	0x3c84b74d	0.016200686
26	0xbe51c063	-0.20483546
27	0x3e8a0ecb	0.2696441
28	0x3dd514c0	0.104043484
29	0x3d03cd56	0.032178245
30	0x3f32c515	0.69831973
31	0x3f2a7d8d	0.66597825

encoder.4.weight f4 [64, 1, 7, 7]
0	0xbdd4bfc1	-0.10388137
1	0xbe0eab60	-0.13932562
2	0x3e0cc958	0.13748682
3	0x3d405c6e	0.046963148
4	0x3d96db9e	0.073661074
5	0xbc32fa4a	-0.010923931
6	0xbe062a7d	-0.13102145
7	0x3c6a79dc	0.01431128
8	0xbcba40ae	-0.02273592
9	0x3cca18ca	0.024670023
10	0x3d9d4253	0.07678666
11	0xbcfba88a	-0.030720014
12	0xbd05ec3c	-0.032695994
13	0xbdae46b1	-0.08509577
14	0x3dffe533	0.12494888
15	0x3d9998da	0.07499857
16	0x3b5ea093	0.0033970221
17	0xbdb2a281	-0.087224014
18	0xbb31c24a	-0.0027123862
19	0x3d94505e	0.07241891
20	0xbe05a6df	-0.13051938
21	0x3d8fb165	0.07016257
22	0x3deecb2e	0.11659847
23	0xbdcd9b63	-0.10039403
24	0xbab6c1b7	-0.001394323
25	0xbdfb848a	-0.12281139
26	0xbe017193	-0.12640981
27	0x3dde17a8	0.10844356
28	0xbdffd90c	-0.1249257
29	0x3e0ca817	0.13735996
30	0x3d52e2bc	0.051485762
31	0xbdf8d9f1	-0.12150944
32	0xbd29ea9c	-0.041483507
33	0x3d9a9ca3	0.07549407
34	0x3d2c3b8a	0.04204897
35	0xbe0ae520	-0.13563967
36	0xbd670913	-0.05640514
37	0xbd0ba54a	-0.03409318
38	0xbdd87a15	-0.1057016
39	0x3cc1630a	0.023606796
40	0xbe013c3e	-0.12620637
41	0xbdf22611	-0.11823667
42	0x3d4816ea	0.048849978
43	0x3dd7d875	0.10539333
44	0xbd348905	-0.044075985
45	0xbddd717a	-0.108126596
46	0xbda8c067	-0.08239823
47	0x3cbbfee5	0.022948692
48	0xbd75366e	-0.05986636
49	0xbe070b98	-0.13188016
50	0xbd5af097	-0.0534521
51	0x3c8b7d80	0.017027617
52	0x3e0dc16e	0.13843319
53	0xbd684d38	-0.056714267
54	0x3db7f5ce	0.089824304
55	0x3cbc981c	0.02302175
56	0xbddf6f98	-0.10909957
57	0x3dc3f58a	0.09568317
58	0xbd97b5d5	-0.074077286
59	0xbd510d6e	-0.0510382
60	0xbcf65238	-0.030068502
61	0xbd016b93	-0.03159673
62	0x3d1b335c	0.037890777
63	0x3da2acc0	0.07943106
64	0x3d99baa3	0.07506301
65	0x3d8ab463	0.06772687
66	0xbdb2cbfa	-0.08730312
67	0xbd928870	-0.0715493
68	0x3d87597c	0.06608865
69	0x3dbefe6c	0.09325871
70	0x3c1eb937	0.009687713
71	0x3d9729ce	0.073810205
72	0x3e0c8df4	0.13726026
73	0xbc80841c	-0.015687995
74	0x3e02674f	0.12734722
75	0x3d8f2df0	0.06991184
76	0xbc537301	-0.012905837
77	0xbc8a3d8a	-0.016875047
78	0xbc4ff4a5	-0.012692605
79	0x3d516b01	0.051127438
80	0x3d63b8e5	0.05559625
81	0xbe09e53f	-0.13466357
82	0xbd9c27b3	-0.076247595
83	0xbddf871c	-0.10914442
84	0x3d5449fc	0.05182837
85	0xbe08b312	-0.1334956
86	0xbab25925	-0.0013606889
87	0x3db72165	0.089419164
88	0x3d072aea	0.03299991
89	0x3cbcd213	0.02304939
90	0xbd945a3e	-0.07243775
91	0xbcc8f6b7	-0.024531705
92	0xbde6ab18	-0.11263102
93	0x3c04deca	0.008109758
94	0xbdbdfc9e	-0.092766985
95	0xbe073d1e	-0.13206908
96	0x3dfac4ea	0.122445896
97	0x3da78e3c	0.08181426
98	0x3d81e86c	0.06343159
99	0x3d58d22a	0.052934803
100	0x3c7a3b81	0.015272976
101	0x3dbcd52a	0.09220345
102	0xbbcb7e01	-0.006210089
103	0x3c8a354a	0.016871113
104	0x3e0632fe	0.1310539
105	0x3d423253	0.047411274
106	0x3cdc84e5	0.026918838
107	0xbdc36cf3	-0.09542265
108	0xbdfa90ae	-0.12234627
109	0x3de47c51	0.11156524
110	0x3d33a8b7	0.04386207
111	0x3dc39577	0.095499925
112	0xbc4f80dc	-0.012665
113	0xbdf0cdbc	-0.11757991
114	0xbd7a8ca1	-0.06116927
115	0xbdcde631	-0.10053671
116	0xbdaacbc5	-0.08339647
117	0x3ddb865e	0.10718988
118	0x3c7998dc	0.015234198
119	0x3dd0924e	0.101841554
120	0xbbca5ab7	-0.006175365
121	0xbe122dd6	-0.14275298
122	0x3e052b65	0.13004835
123	0xbe120e92	-0.1426337
124	0x3c7ce025	0.0154343
125	0x3df94641	0.12171603
126	0x3df928ca	0.12165983
127	0x3c010325	0.007874285
128	0x3dcf1b45	0.10112623
129	0x3ddd51ee	0.108066425
130	0xbc91ffca	-0.017822165
131	0x3d6d7113	0.057969164
132	0x3d5f3605	0.054494876
133	0x3de96e65	0.11398009
134	0xbddce7cc	-0.10786399
135	0x3bf6e593	0.0075346916
136	0xb8db36dc	-0.00010452952
137	0xbdfa131c	-0.12210676
138	0x3dfee32e	0.12445675
139	0xbd9802ae	-0.07422386
140	0x3e092c7e	0.13395879
141	0xbd060a13	-0.03272445
142	0xbcebd82e	-0.028789606
143	0xbd525ee5	-0.05136003
144	0xbe0c692d	-0.13711996
145	0x3d9d2503	0.07673075
146	0x3da62963	0.08113363
147	0xbc95634a	-0.018235821
148	0x3d00934a	0.031390466
149	0xbd0477d7	-0.03234085
150	0xbd17da2e	-0.037073307
151	0x3d3f3bca	0.04668788
152	0xbd59ac2e	-0.05314272
153	0x3d1c2865	0.03812446
154	0xbde6ed91	-0.11275781
155	0x3da5e993	0.08101191
156	0x3de2070a	0.11036499
157	0xbdfd4bf5	-0.12368003
158	0xbd290d65	-0.04127254
159	0x3db574a5	0.08860139
160	0xbe0dd6e8	-0.13851511
161	0x3c8a69b7	0.016896112
162	0xbb841a6e	-0.004031471
163	0xbe0d7b7c	-0.13816637
164	0x3dd784cc	0.10523376
165	0x3cc1db41	0.023664119
166	0xbd349fb3	-0.044097614
167	0xbde8798e	-0.1135131
168	0xbdfb2cb5	-0.122643866
169	0x3cd157a5	0.025554487
170	0xbd936b13	-0.07198157
171	0x3e05a9c4	0.13053042
172	0x3d2b4c8a	0.04182104
173	0xbd739298	-0.059465975
174	0xbd074ae0	-0.03303039
175	0xbd878d57	-0.06618755
176	0x3c91f465	0.017816732
177	0xbd746273	-0.0596642
178	0xbc0d6c00	-0.008631706
179	0x3e0dd97c	0.13852495
180	0xbdb0d41c	-0.08634207
181	0xbd9a1230	-0.07523
182	0xbdcb47be	-0.09925793
183	0xbd83e770	-0.064406276
184	0x3df13f68	0.11779672
185	0x3dbdc1b5	0.09265462
186	0xbe027ac7	-0.12742148
187	0xbd601685	-0.054708976
188	0xbd2ae053	-0.04171784
189	0xbc94690a	-0.018116493
190	0xbe00b65f	-0.12569569
191	0xbdd99a3a	-0.106251195
192	0xbdcf3d01	-0.101190574
193	0x3d5bf9d3	0.053705048
194	0x3db08b95	0.08620373
195	0xbd89881a	-0.067154124
196	0x3de05055	0.10952822
197	0xbe0150fe	-0.12628552
198	0xbd18068e	-0.037115626
199	0x3d94b1b5	0.072604574
200	0xbd397085	-0.045273323
201	0x3de7a6a5	0.11311082
202	0x3ca1c965	0.019749353
203	0xbc0137a5	-0.007886802
204	0x3d649021	0.055801515
205	0xbd632ef8	-0.055464715
206	0x3d1fabbc	0.038982138
207	0x38c20925	9.252344e-05
208	0xbd417f25	-0.047240395
209	0x3d21214e	0.039338402
210	0x3dfeb028	0.12435943
211	0xbd32b9d7	-0.043634262
212	0xbdbd782c	-0.092514366
213	0x3c3d9201	0.011570455
214	0xbcc0ed2e	-0.023550596
215	0xbd2eab77	-0.04264399
216	0x3d96cc2a	0.0736316
217	0x3d853f17	0.06506174
218	0x3db7372a	0.089460686
219	0x3d87cbc7	0.06630664
220	0xbde686b5	-0.11256162
221	0x3e0f4cde	0.13994166
222	0xbde86eb1	-0.11349238
223	0xbd132540	-0.035924196
224	0x3d84e043	0.06488087
225	0xbd738b13	-0.059458803
226	0xbd610b85	-0.054942627
227	0x3d1e8b4a	0.038707055
228	0x3c90aaa5	0.017659495
229	0x3cfa1025	0.030525276
230	0x3d74c7d3	0.05976088
231	0xbca966ca	-0.020678896
232	0xbc7dc625	-0.015489136
233	0xbdfe3d3e	-0.12414025
234	0xbdd2e411	-0.102974065
235	0x3d81ac87	0.06331735
236	0xbd8e7c25	-0.069572724
237	0xbdb1b7c1	-0.086776264
238	0x3df0b431	0.11753119
239	0x3e0969d6	0.1341928
240	0x3de35893	0.111008786
241	0xbd2f09f3	-0.042734098
242	0x3dbe0f21	0.09280229
243	0xbd2cbdc5	-0.042173166
244	0xbd92846a	-0.07154162
245	0xbcf80d0a	-0.030279655
246	0x3df7c8cc	0.12098846
247	0x3dcb0a23	0.09914043
248	0x3d1fb945	0.038995046
249	0xbc5835ee	-0.013196452
250	0x3df58ef1	0.119901545
251	0xbde63c45	-0.11241964
252	0xbddd858a	-0.10816486
253	0x3ceeaf8a	0.029136438
254	0xbdb2c30a	-0.08728607
255	0xbd977910	-0.07396138

encoder.4.bias f4 [64]
0	0xbd975053	-0.073883675
1	0x3d9f406e	0.07775961
2	0xbde51d13	-0.11187186
3	0x3baf116e	0.005342654
4	0xbd5da55c	-0.054112777
5	0x3d8a4f4e	0.067534074
6	0x3d0834aa	0.03325335
7	0xbdcf374e	-0.101179704
8	0xbd8baae3	-0.068197034
9	0x3d2b07c1	0.04175544
10	0xbd1866a5	-0.037207264
11	0x3dfe3ede	0.12414335
12	0xbdab915a	-0.08377333
13	0xbc80c353	-0.015718138
14	0xbcd556b7	-0.026042325
15	0xbdd922d7	-0.10602348
16	0xbd46ac53	-0.048504185
17	0x3d62282e	0.0552141
18	0xbdce2941	-0.10066462
19	0xbdf62d61	-0.12020374
20	0xbb00a093	-0.001962696
21	0x3d571c4a	0.052517213
22	0xbccead4a	-0.025229115
23	0x3dcfd48e	0.101479635
24	0x3d81d50a	0.06339462
25	0x3cd202ee	0.025636163
26	0x3dccb4b5	0.09995405
27	0x3e1105e7	0.14162408
28	0x3dea80a8	0.114503205
29	0x3c434eca	0.01192064
30	0x3e0753ce	0.13215563
31	0x3dd85041	0.10562182
32	0x3d0bbcbc	0.034115538
33	0x3d42c613	0.04755218
34	0xbd35b35c	-0.044360504
35	0x3db6e85d	0.089310385
36	0xbe032895	-0.1280845
37	0xbdb8ad97	-0.09017485
38	0x3d424541	0.047429327
39	0x3d3d6eca	0.046248235
40	0xbef2bd5c	-0.47410095
41	0xbedbee13	-0.42955074
42	0x3e6b126b	0.22956245
43	0x3eae41a2	0.3403445
44	0x3c095cdc	0.008383956
45	0x3ce68c6e	0.028143134
46	0x3e0a68e3	0.13516574
47	0xbd99369a	-0.074811175
48	0xbe7cf836	-0.2470406
49	0x3e9ccb63	0.30623922
50	0xbdbad481	-0.09122563
51	0xbe90bdfd	-0.2826995
52	0xbda6df15	-0.08148018
53	0xbbf18893	-0.0073710172
54	0xbde638ec	-0.11241326
55	0x3db6c2ea	0.08923896
56	0xbd1c3040	-0.038131952
57	0xbdaf79d3	-0.08568158
58	0x3d761baa	0.060084976
59	0xbdbb1f31	-0.09136809
60	0xbee1951d	-0.44059077
61	0x3eb3f5d9	0.35148504
62	0xbea92108	-0.33033013
63	0xbf072022	-0.52783406

decoder.0.weight f4 [64, 1, 7, 7]
0	0xbdf395ae	-0.118937835
1	0xbce08d13	-0.02741102
2	0x3d88b63e	0.06675385
3	0x3dd0d2c1	0.10196448
4	0x3d88554c	0.06656894
5	0xbc965e65	-0.018355558
6	0x3e0d43ee	0.13795444
7	0x3dd53087	0.104096465
8	0xbe01265c	-0.12612289
9	0x3c574193	0.013138193
10	0x3c4da493	0.012551445
11	0xbc2f1c13	-0.010687846
12	0x3d485741	0.048911337
13	0x3dfb09d8	0.12257737
14	0xbca1bd0a	-0.019743461
15	0x3c7dccdc	0.015490737
16	0xbe0511dc	-0.12995094
17	0xbdc03657	-0.093853645
18	0x3cc129b7	0.023579462
19	0xbaf2dc93	-0.0018528871
20	0x3e06f496	0.1317924
21	0xbd9d0a6a	-0.07668002
22	0xbbf01101	-0.007326246
23	0x3ddc241e	0.10749076
24	0xbdf49dee	-0.11944185
25	0xbe0d01dc	-0.1377024
26	0xbe10c0ff	-0.14136122
27	0x3d11f4c0	0.035633802
28	0xbd9a79c0	-0.07542753
29	0x3ccc7dc1	0.024962308
30	0xbdbf6c93	-0.09346881
31	0x3dcecf65	0.10098151
32	0xbde8ac78	-0.11361021
33	0xbe007d84	-0.1254788
34	0x3d617df8	0.055051774
35	0xbdfd8d9c	-0.123805255
36	0x3d22a185	0.03970482
37	0xbc614b13	-0.013750809
38	0xbdbddfd7	-0.0927121
39	0xbe0c2a8a	-0.13688102
40	0xbd20226a	-0.03909532
41	0x3cfd0ce5	0.030889938
42	0x3d8f1cf7	0.069879465
43	0xbd2b9957	-0.041894283
44	0x3dd924a5	0.106026925
45	0xbdef62bc	-0.11688754
46	0x3da9f8f7	0.082994394
47	0xbc580bdc	-0.013186421
48	0xbdf8cddc	-0.121486396
49	0x3d424dee	0.0474376
50	0xbda323e3	-0.07965829
51	0xbca2301c	-0.019798331
52	0x3da2bd9a	0.0794632
53	0xbdff8751	-0.124769814
54	0xbdc7ccde	-0.09755872
55	0xbd8e9c63	-0.06963422
56	0xbdd1707c	-0.10226533
57	0xbde862aa	-0.11346944
58	0x3d76df2e	0.060271434
59	0xbe0d9245	-0.13825329
60	0xbc3f3325	-0.011669909
61	0x3e0c5652	0.13704804
62	0x3e0d8f8f	0.13824295
63	0xbdcad3ae	-0.09903656
64	0x3e04329d	0.12909932
65	0x3dc01f35	0.09380952
66	0x3e0e21b8	0.1388005
67	0xbdca9b05	-0.09892849
68	0x3e05caee	0.13065693
69	0x3cea1c78	0.028578028
70	0x3d61f91c	0.05516921
71	0xbdec2e23	-0.115322374
72	0xbe035898	-0.12826765
73	0x3d875e45	0.06609777
74	0x3d084d85	0.033277053
75	0xbd46ca57	-0.04853281
76	0x3bb5316e	0.005529574
77	0x3bdf756e	0.0068194186
78	0x3da88723	0.082289
79	0x3db01267	0.0859726
80	0xbda01fb7	-0.07818549
81	0x3e0f439a	0.13990632
82	0xbd7fb9aa	-0.062432922
83	0xbe0c19aa	-0.13681665
84	0x3d8c8a80	0.06862354
85	0x3e0f033f	0.13966082
86	0xbd26b5d3	-0.040700745
87	0xbdc0b6ba	-0.09409852
88	0xbcb3d6e5	-0.021953056
89	0x3dc17867	0.09446793
90	0x3d839f8a	0.06426914
91	0x3db1302e	0.08651768
92	0xbe04526b	-0.12922065
93	0x3d42dc61	0.04757345
94	0xbdf14d83	-0.11782362
95	0xbd076005	-0.033050556
96	0xbd26ba33	-0.040704917
97	0xbdbcaffe	-0.09213255
98	0xbb9855dc	-0.004648907
99	0x3d01eeea	0.031721987
100	0x3ce0b813	0.027431523
101	0xbe06ce9f	-0.13164757
102	0x3d72a3c1	0.0592382
103	0x3da06a30	0.07832754
104	0x3e009b62	0.12559274
105	0xbcfc295c	-0.03078144
106	0x3d748ba1	0.059703473
107	0x3d59fec5	0.053221483
108	0x3dfb58b8	0.12272781
109	0xb6c76db7	-5.9434346e-06
110	0x3d538a93	0.051645827
111	0xbd1d2f05	-0.03837492
112	0x3c03f45c	0.008053865
113	0x3d27d04a	0.040970124
114	0x3d223baa	0.03960768
115	0xbd40c8aa	-0.04706637
116	0xbde8ad43	-0.11361172
117	0xbe08f54b	-0.13374822
118	0xbcd288a5	-0.025699923
119	0xbc05de5c	-0.00817069
120	0x3d6c8e93	0.057753157
121	0xbcac8b9c	-0.021062665
122	0xbc9e0e1c	-0.019293837
123	0xbcdd1425	-0.026987145
124	0x3ca2ca65	0.0198719
125	0xbd9f5dca	-0.07781561
126	0xbd87a493	-0.06623187
127	0xbd93d003	-0.072174095
128	0x3e04e306	0.12977228
129	0x3da7716a	0.08175929
130	0x3cac92f7	0.021066172
131	0x3be94101	0.007118345
132	0xbdab7325	-0.083715715
133	0x3dae8efc	0.08523366
134	0x3ce03553	0.027369177
135	0x3d070753	0.03296597
136	0xbdec91fa	-0.1155128
137	0xbdc94bcc	-0.0982891
138	0xbdc810ee	-0.09768854
139	0xbda91c1c	-0.082573146
140	0xbe03735c	-0.12836975
141	0x3e0ef655	0.13961156
142	0xbd810183	-0.062991165
143	0xbdbdb555	-0.09263102
144	0x3d7933c5	0.060840387
145	0x3bcc7601	0.006239653
146	0xbdd02523	-0.10163333
147	0x3c902553	0.017595923
148	0x3d934edc	0.071927756
149	0x3db5b03a	0.08871503
150	0xbc88e58a	-0.016711015
151	0xbd8c29c3	-0.06843903
152	0x3d1cd76e	0.038291387
153	0x3de1b15a	0.11020155
154	0x3d9be993	0.0761291
155	0xbded7da8	-0.11596233
156	0xbcfb9225	-0.030709336
157	0x3db7557a	0.0895185
158	0x3dce501c	0.100738734
159	0xbd2e42e5	-0.042544264
160	0x3e0d68d3	0.13809519
161	0x3da3c23e	0.07996033
162	0xbdadfd03	-0.08495524
163	0xbd14161c	-0.036153898
164	0xbda23af0	-0.07921398
165	0x3d55ff5c	0.052245483
166	0x3bee15b8	0.0072657727
167	0xbdd2d865	-0.1029518
168	0x3d3f0c93	0.04664285
169	0xbd62e3ca	-0.055393018
170	0xbc7e6d13	-0.015528935
171	0xbcc2c6dc	-0.023776464
172	0xbdc442da	-0.095830634
173	0x3dd96d4a	0.10616548
174	0x3daccfac	0.08438048
175	0xbd8bde7c	-0.06829545
176	0x3cee548a	0.029093046
177	0x3dcd88f5	0.10035888
178	0xbadc0b6e	-0.0016788074
179	0xbc123a4a	-0.00892503
180	0x3dd8eff5	0.10592643
181	0x3e09784b	0.13424794
182	0xbd8682f7	-0.06567948
183	0x3dc421d3	0.09576764
184	0x3df35471	0.1188134
185	0x3e05ae5b	0.13054793
186	0xbcaae62e	-0.020861711
187	0xbd4ebaf7	-0.050471272
188	0xbe08d357	-0.1336187
189	0x3db875fa	0.09006877
190	0xbdae698a	-0.08516224
191	0x3ca4c7a5	0.02011473
192	0xbd9f5b63	-0.077811025
193	0xbde5b77a	-0.11216636
194	0xbdadc571	-0.084849246
195	0x3d4d1977	0.050073113
196	0xbd843eaa	-0.06457265
197	0xbd8bb5ae	-0.06821762
198	0xbde95c3a	-0.11394544
199	0x3e015bbc	0.1263265
200	0x3d6876c5	0.056753892
201	0xbdf2410a	-0.118288115
202	0xbd6dbe9c	-0.058043107
203	0xbe086db7	-0.13323103
204	0x3d22fbfc	0.039791092
205	0x3e046db0	0.12932467
206	0xbe062a02	-0.13101962
207	0xbd302d77	-0.04301211
208	0xbdbcdca3	-0.092217706
209	0xbd3a8613	-0.04553802
210	0x3dc8c9ec	0.098041385
211	0x3da6b310	0.08139622
212	0x3da93c4c	0.08263454
213	0x3c902377	0.017595036
214	0xbdc2249a	-0.094796374
215	0xbc618b13	-0.013766068
216	0xbe000c83	-0.12504773
217	0xbda5e260	-0.08099818
218	0x3dd266e3	0.1027353
219	0x3e03e6ff	0.12881087
220	0xbd230220	-0.03979695
221	0x3da8fb0e	0.0825101
222	0xbcc1a65c	-0.023638897
223	0xbd4973ea	-0.04918281
224	0x3de30a18	0.110859096
225	0x3dec9fa8	0.115538895
226	0x3c6e09dc	0.014528718
227	0x3d29d577	0.04146334
228	0xbe06731d	-0.1312985
229	0xbd2b284a	-0.04178647
230	0xbc8a502e	-0.016883936
231	0x3d17c57c	0.03705357
232	0xbdd0c615	-0.10194031
233	0x3d6f4eca	0.05842475
234	0xbd54038a	-0.051761188
235	0xbd5d62e1	-0.054049376
236	0xbc9a67f7	-0.018848402
237	0xbdf4b3f3	-0.11948385
238	0xbd58ad57	-0.052899685
239	0x3e0b87b5	0.13625987
240	0xbdc35c4e	-0.0953909
241	0xbd1900fc	-0.037354454
242	0xbdee1e8e	-0.116269216
243	0x3d8e3370	0.06943405
244	0x3df5bb4c	0.11998615
245	0x3dd4ff7e	0.10400294
246	0xbc5da313	-0.013527649
247	0xbe0f3e2c	-0.1398856
248	0xbca240dc	-0.019806318
249	0xbd5421dc	-0.051790103
250	0x3dbc6281	0.09198476
251	0xbc85ce5c	-0.016333751
252	0xbc69d6ca	-0.014272401
253	0x3c834565	0.0160243
254	0xbcfb7f4a	-0.030700345
255	0x3cb9b52e	0.022669401

decoder.0.bias f4 [32]
0	0xbe075344	-0.13215357
1	0x3ddd9b8a	0.10820682
2	0xbd5b0ebc	-0.05348085
3	0xbd3cfd37	-0.046139922
4	0x3cd41b1c	0.025891833
5	0xbd956aec	-0.07295784
6	0x3d9896c5	0.07450632
7	0x3dcbf983	0.099597
8	0xbd4874ee	-0.048939638
9	0xbb07336e	-0.002063002
10	0x3dd34097	0.10315054
11	0x3df89f55	0.12139765
12	0x3c1eb913	0.00968768
13	0xbb275a00	-0.0025535822
14	0x3caf7741	0.02141917
15	0x3db09dc5	0.08623842
16	0xbdb5658e	-0.08857261
17	0xbc896dc9	-0.016775982
18	0x3dcac64c	0.099011034
19	0xbd954d43	-0.07290127
20	0x3e8d42c7	0.2759001
21	0x3e7b549f	0.24543999
22	0x3cd4a713	0.025958573
23	0xbcc46d01	-0.023977758
24	0x3e1d371d	0.15353055
25	0x3e859cb2	0.26096112
26	0x3e10a6bb	0.14126103
27	0xbd0be9d7	-0.034158554
28	0xbcce1301	-0.025155546
29	0x3dc2fa5c	0.095204085
30	0x3e414195	0.18872674
31	0x3e95ea57	0.2928035

decoder.2.weight f4 [32, 1, 3, 3]
0	0xbe96c3e3	-0.29446325
1	0x3e235f20	0.15954256
2	0xbd500fe0	-0.05079639
3	0x3d7ebd36	0.062192164
4	0xbe2be74b	-0.1678745
5	0x3e57c82b	0.21072452
6	0xbe2969d6	-0.1654428
7	0xbe066958	-0.13126123
8	0x3d905d56	0.070490524
9	0xbdac318b	-0.08407887
10	0x3e8e39f8	0.27778602
11	0x3e6d1066	0.23150787
12	0x3eaa3e0a	0.33250457
13	0x3e91e333	0.28493652
14	0xbe9098cb	-0.28241572
15	0x3e242a40	0.16031742
16	0x3e47d2c6	0.19513997
17	0x3d36fa2b	0.044672173
18	0xbcb04ceb	-0.021521052
19	0xbea59676	-0.32341355
20	0xbd94f646	-0.072735354
21	0x3e465f23	0.1937223
22	0x3df93d36	0.12169878
23	0x3dc88b1b	0.09792157
24	0x3e501c4e	0.20323297
25	0xbe45a2e0	-0.19300413
26	0x3e74a39e	0.2389054
27	0x3e46b6fb	0.19405739
28	0xbe8fe378	-0.28103232
29	0xbe5620ae	-0.20910904
30	0xbe44fc06	-0.19236764
31	0x3e322cd3	0.17399912
32	0x3e7b440e	0.2453768
33	0x3d4e684b	0.05039243
34	0xbe9d17ac	-0.30682123
35	0xbe94d764	-0.2907058
36	0xbe85d4cb	-0.2613891
37	0x3e5c75cb	0.2152931
38	0x3ea830b4	0.32849658
39	0xbe6511e8	-0.22370112
40	0x3e546fc0	0.20745754
41	0xbe820dc4	-0.25401127
42	0x3dd2f22b	0.10300096
43	0xbe9ddfc0	-0.3083477
44	0xbd3572f6	-0.04429909
45	0x3d94e1e6	0.07269649
46	0xbe043e43	-0.12914376
47	0xbe450fa6	-0.1924425
48	0xbe854992	-0.26032692
49	0xbce863d6	-0.028367918
50	0xbe522863	-0.20523219
51	0x3dfe20bb	0.124085866
52	0xbe010038	-0.1259774
53	0x3bf82eab	0.0075739226
54	0xbde157eb	-0.11003097
55	0xbe233608	-0.1593858
56	0x3d54f82b	0.051994484
57	0x3ce7f06b	0.028312882
58	0xbdb2e40b	-0.08734902
59	0xbe0b151e	-0.13582274
60	0xbe8006e0	-0.25005245
61	0xbda4624b	-0.080265604
62	0xbe483606	-0.19551858
63	0xbc6c6e80	-0.014430642
64	0x3e6d2083	0.23156933
65	0xbea04e7f	-0.31309888
66	0xbe11dc90	-0.14244294
67	0xbb1c4cab	-0.0023849409
68	0xbe5cc318	-0.21558797
69	0xbd6b4ba0	-0.05744517
70	0x3e698106	0.22803125
71	0x3e9766d4	0.2957064
72	0x3e5e38d3	0.21701364
73	0x3d7f642b	0.062351387
74	0xbe86c37a	-0.26321012
75	0xbd930680	-0.07178974
76	0x3e550db6	0.20806012
77	0xbe80c807	-0.2515261
78	0xbd208420	-0.039188504
79	0xbca26e2b	-0.019827923
80	0x3e85a8f2	0.26105458
81	0x3e876c23	0.2644969
82	0x3e56ca8b	0.20975702
83	0xbe64872e	-0.22317192
84	0xbe846403	-0.25857553
85	0x3e1d9ad0	0.15391088
86	0x3e76f946	0.24118528
87	0x3d4d2380	0.050082684
88	0xbe44a746	-0.19204435
89	0x3e0fad76	0.14031014
90	0x3e8a227c	0.26979434
91	0xbea9f266	-0.33192748
92	0xbc339d56	-0.010962805
93	0x3e8526b6	0.26006097
94	0xbe98d46f	-0.29849574
95	0xbe110d20	-0.14165163
96	0x3e4a9943	0.19785027
97	0x3e1b7826	0.15182552
98	0xbe1c7418	-0.15278661
99	0xbe3b2f20	-0.18279696
100	0x3d2b81b6	0.04187175
101	0xbe7ab41e	-0.24482772
102	0xbe2cfe1b	-0.16893809
103	0x3e6d61c6	0.23181829
104	0x3d8e6720	0.06953263
105	0x3e0c3260	0.13691092
106	0x3d94e4f6	0.07270233
107	0xbd885bc0	-0.06658125
108	0xbe67f736	-0.22652897
109	0xbe899af4	-0.26876032
110	0x3dc218c6	0.094773814
111	0x3e9904c4	0.29886448
112	0xbe44903e	-0.19195649
113	0xbe4ceea0	-0.20012903
114	0xbe0f1f63	-0.13976817
115	0x3c0de0d6	0.008659562
116	0xbe83502a	-0.25647098
117	0x3dd87b30	0.10570371
118	0x3e5c7913	0.21530561
119	0x3e0cd1f8	0.13751972
120	0xbe69e976	-0.22842965
121	0x3e075a26	0.13217983
122	0x3e5b6943	0.21426873
123	0xbe806c17	-0.25082466
124	0x3e89f872	0.2694736
125	0xbc7cb6d6	-0.015424451
126	0x3e73260b	0.23744981
127	0xbe54564b	-0.20736043
128	0xbe157e70	-0.14599013
129	0xbd719720	-0.058982015
130	0x3ea48bac	0.3213781
131	0xbe8692c0	-0.26283836
132	0x3e99ae93	0.30016002
133	0xbe6dc8ee	-0.2322118
134	0x3e45650b	0.19276826
135	0x3e264758	0.16238153
136	0xbe82f0f6	-0.25574464
137	0x3d4063cb	0.04697017
138	0xbd21ba8b	-0.039484542
139	0xbe746490	-0.23866487
140	0xbc5c7756	-0.013456186
141	0xbe25c836	-0.16189656
142	0x3e2f23b6	0.17103466
143	0x3cc5e880	0.024158716
144	0x3d7bf220	0.061510205
145	0x3dc8b000	0.09799194
146	0x3cccb9c0	0.024990916
147	0xbdcc9c50	-0.09990752
148	0xbe2bf486	-0.16792497
149	0x3e572d50	0.21013379
150	0xbe55dceb	-0.20885055
151	0xbdc4650b	-0.09589585
152	0x3e10b1a0	0.14130259
153	0x3e89bf5a	0.26903802
154	0xbe940de7	-0.28916857
155	0xbe63b4b4	-0.22236902
156	0xbe7f63d0	-0.24940419
157	0xbe9cff19	-0.30663374
158	0x3e1fb732	0.15597227
159	0xbe17f1c8	-0.14838326
160	0xbe3886a9	-0.18020119
161	0xbe419d19	-0.18907584
162	0xbdc9d95b	-0.098559104
163	0x3e745428	0.23860228
164	0xbe7ff24e	-0.24994776
165	0x3dde80e0	0.10864425
166	0xbe37c06b	-0.17944495
167	0xbe9f09d0	-0.31062174
168	0x3dd0de1b	0.10198613
169	0x3e80f1ab	0.25184378
170	0x3dfad11b	0.12246915
171	0x3de4dea0	0.11175275
172	0xbe1d32c0	-0.15351391
173	0x3e823efc	0.25438678
174	0x3e24626e	0.16053173
175	0x3dfb33a6	0.122657105
176	0xbdaa21b6	-0.08307211
177	0xbc36f3d6	-0.011166533
178	0x3e3d2dc6	0.18474492
179	0xbe198958	-0.14993799
180	0x3f0b9728	0.5452752
181	0x3d968514	0.073496014
182	0x3ea7dac6	0.32784098
183	0xbd8c2ec2	-0.06844856
184	0x3d4e7863	0.05040778
185	0x3f003094	0.50074124
186	0x3ed50485	0.4160501
187	0x3f0ea39a	0.55718386
188	0x3f1a51df	0.60281175
189	0x3efb292e	0.49054855
190	0x3ece734a	0.40322334
191	0xbcb2ac55	-0.02181069
192	0x3f08f09b	0.53492135
193	0x3ebb220c	0.36549413
194	0x3e89f34b	0.2694343
195	0x3edd217e	0.43189615
196	0x3e4f3b58	0.20237482
197	0x3eb9a482	0.36258322
198	0xbea180f2	-0.3154369
199	0x3d8af56b	0.06785091
200	0x3e991d83	0.29905328
201	0xbe1a2a5e	-0.15055224
202	0x3e04e716	0.12978777
203	0x3e9d27bb	0.30694374
204	0x3e434bde	0.1907191
205	0x3e1fbb73	0.1559885
206	0x3db5fbeb	0.0888594
207	0x3e0273d3	0.12739496
208	0x3e9e2410	0.30886889
209	0x3e5e7908	0.21725857
210	0xbe8eaa0f	-0.2786412
211	0x3ea1db54	0.31612647
212	0x3e257a48	0.16159928
213	0xbe960a03	-0.29304513
214	0xbd843340	-0.06455088
215	0x3ddedb2b	0.10881647
216	0x3e6d4c2f	0.23173593
217	0x3e8a0943	0.2696019
218	0x3ec59ff7	0.38598606
219	0xbb41aec4	-0.0029553631
220	0x3ef6b173	0.48182258
221	0x3e3e9d92	0.18614796
222	0x3ea6e731	0.3259826
223	0x3e8155b6	0.25260705
224	0x3f088ff8	0.5334468
225	0x3e248dff	0.16069792
226	0x3e17fccf	0.14842533
227	0x3e86315f	0.26209542
228	0x3edc9db0	0.43089056
229	0x3e22a38d	0.15882702
230	0x3eae31f8	0.34022498
231	0x3d0192de	0.031634204
232	0x3f01cc7f	0.5070266
233	0x3e276f1f	0.16350983
234	0x3def75d0	0.11692393
235	0x3df7951b	0.120889865
236	0xbe192a6b	-0.14957587
237	0x3dc6e6c6	0.09711985
238	0x3e5aa22b	0.21350925
239	0xbe6eb270	-0.23310256
240	0xbe4827f3	-0.1954649
241	0xbcbd3280	-0.02309537
242	0xbe267dbe	-0.16258904
243	0x3e769460	0.24080038
244	0x3e7b4a16	0.2453998
245	0xbd27ce60	-0.0409683
246	0xbe3d6676	-0.18496117
247	0x3e930024	0.28711045
248	0x3df0d306	0.117589995
249	0x3e956ee7	0.29186174
250	0xbe921077	-0.28528187
251	0x3e3081b6	0.17236981
252	0x3ea6bb1a	0.32564622
253	0x3ea32248	0.31862092
254	0x3d9fb820	0.07798791
255	0xbe73209e	-0.23742911

decoder.2.bias f4 [16]
0	0xbe66df80	-0.22546196
1	0xbe7c8898	-0.24661481
2	0xbe81b90a	-0.25336486
3	0xbe9b6ab2	-0.3035484
4	0xbe7fdba6	-0.24986133
5	0xbe80d8de	-0.25165457
6	0xbe3c0a70	-0.18363357
7	0xbe609a93	-0.21933965
8	0x3f003f78	0.50096846
9	0xbe72c166	-0.23706588
10	0x3eb362a1	0.35036185
11	0xbda64730	-0.08119047
12	0x3ef6c7a7	0.48199198
13	0xbe1a2713	-0.15053968
14	0xbe894814	-0.26812804
15	0x3ee485a8	0.44633222

decoder.4.weight f4 [16, 1, 3, 3]
0	0x3e5108c3	0.20413499
1	0x3e7cbad8	0.2468065
2	0x3db8fef0	0.090330005
3	0x3d19062b	0.037359398
4	0xbe8ca1ea	-0.2746728
5	0x3ea5172f	0.3224425
6	0xbe74d7be	-0.23910424
7	0xbe88cf9e	-0.267209
8	0xbe0c278e	-0.13686964
9	0x3cc0ec2b	0.023550114
10	0x3da5c2c6	0.08093791
11	0xbe75e7d6	-0.2401422
12	0xbe275fbb	-0.16345112
13	0x3e9a65d6	0.3015582
14	0xbe9e57c7	-0.30926344
15	0x3e80cc68	0.2515595
16	0x3e5f2e58	0.21795022
17	0xbe005663	-0.12532954
18	0x3e769200	0.24079132
19	0xbe860f48	-0.26183534
20	0xbdf6abf0	-0.12044513
21	0x3e0486ae	0.12942001
22	0x3e7489f6	0.23880753
23	0x3d87d1db	0.06631824
24	0x3e372e6e	0.17888805
25	0xbdad367b	-0.08457657
26	0xbe169d78	-0.14708507
27	0xbea4ecbf	-0.32211873
28	0x3d9ed57b	0.07755562
29	0xbc165000	-0.009174347
30	0x3d1929a0	0.037393212
31	0xbe7395c0	-0.23787594
32	0xbdef1a2b	-0.11674913
33	0xbbe0e456	-0.0068631573
34	0x3c5e1900	0.013555765
35	0x3dc71826	0.09721403
36	0xbe6b2abb	-0.22965519
37	0xbe2cbfc6	-0.16870031
38	0xbe459df6	-0.19298539
39	0x3e46a65b	0.19399397
40	0xbe0ed18e	-0.13947126
41	0xbd9aa326	-0.07550649
42	0x3ea233b6	0.31680077
43	0x3dc53df0	0.09630954
44	0x3e14483b	0.14480679
45	0x3d519d4b	0.051175397
46	0x3d83afd6	0.064300224
47	0xbd5e7336	-0.054309092
48	0xbea43da0	-0.32078266
49	0x3e70e9e0	0.23526716
50	0x3e4c68de	0.19961879
51	0x3e9d4420	0.30716038
52	0xbe7935b8	-0.24336898
53	0x3c926dab	0.01787456
54	0x3ea5e084	0.32397854
55	0x3d10a300	0.0353117
56	0x3e17227b	0.14759247
57	0x3e803ae3	0.25044927
58	0xbe2c967e	-0.16854283
59	0xbe93522f	-0.2877364
60	0xbe22f630	-0.15914226
61	0x3e6a128e	0.2285864
62	0x3e847227	0.2586834
63	0xbe07fc9b	-0.13279955
64	0x3dc35d70	0.09539306
65	0x3db37480	0.08762455
66	0x3e823fe4	0.2543937
67	0x3dbccab6	0.092183515
68	0xbea9a200	-0.3313141
69	0xbe2a538e	-0.16633436
70	0x3e4e834e	0.20167276
71	0xbd9e70e0	-0.07736373
72	0x3d537f35	0.051634986
73	0xbee4d262	-0.4469176
74	0xbec3310c	-0.38123357
75	0xbe0dbf21	-0.13842441
76	0xbd20fd66	-0.03930416
77	0xbe6d6169	-0.2318169
78	0xbe9846db	-0.29741558
79	0xbe8b663e	-0.27226442
80	0x3d3ab748	0.045584947
81	0xbe0a2b76	-0.13493142
82	0x3e8e5ee0	0.2780676
83	0xbea79bc4	-0.32736027
84	0xbd771a60	-0.060327888
85	0xbeaa7927	-0.33295557
86	0x3e8d2c94	0.27573073
87	0x3e0ce863	0.13760523
88	0xbe450f1e	-0.19244048
89	0xbe5b91f8	-0.21442401
90	0x3c69dbd8	0.014273606
91	0xbeb82ab9	-0.35970095
92	0xbe3dbaa9	-0.18528236
93	0xbbaf2561	-0.005345032
94	0xbd9102f2	-0.0708064
95	0xbe754b10	-0.23954415
96	0xbe97d2aa	-0.2965291
97	0xbf0eff4c	-0.558583
98	0xbecf1f52	-0.40453583
99	0xbc52de80	-0.012870431
100	0x3e292e8e	0.16521665
101	0x3cd33ed6	0.025786798
102	0xbe3bd7b8	-0.18344009
103	0x3e9e48f0	0.30915022
104	0x3e542720	0.2071805
105	0xbd621fd6	-0.055206142
106	0x3e03f156	0.12885031
107	0x3db14e16	0.08657472
108	0xbebba3e5	-0.3664848
109	0xbe45cf4a	-0.19317356
110	0xbeb92334	-0.3615967
111	0xbf035e4a	-0.5131575
112	0xbf0bfd2d	-0.5468319
113	0xbe810e4d	-0.25206223
114	0x3af1546f	0.0018412004
115	0xbdb35946	-0.08757262
116	0xbe8b3db5	-0.27195516
117	0xbc9867eb	-0.01860424
118	0x3e82e3c0	0.25564384
119	0xbe19ce38	-0.15020072
120	0xbd514c96	-0.05109843
121	0xbe8e04d3	-0.27738056
122	0xbe2b9906	-0.16757593
123	0xbcdcefab	-0.026969751
124	0x3e8a0882	0.26959616
125	0xbe8ae473	-0.27127418
126	0xbe49f0d6	-0.19720778
127	0x3e2db73e	0.16964433
128	0xbe8f9412	-0.28042656
129	0xbe8de87b	-0.2771643
130	0xbe8bc5d3	-0.27299365
131	0x3d52fd96	0.05151137
132	0x3e91b1f7	0.2845609
133	0xbe8b3296	-0.27187032
134	0xbe751fa3	-0.2393785
135	0xbe081c44	-0.13292032
136	0xbe081d6d	-0.13292475
137	0xbddff21e	-0.10934852
138	0xbcd36e48	-0.025809422
139	0xbf0647d6	-0.5245336
140	0xbeca854c	-0.39554822
141	0x3e16da00	0.14731598
142	0xbea87ecb	-0.32909235
143	0xbec9ca34	-0.3941208
